SCI/weights/difficult.pt (torch, 43967 bytes, 72 tensors)

enhance.in_conv.0.weight f4 [3, 3, 3, 3]
0	0x3d2d4c18	0.042308897
1	0xbbe12db6	-0.0068719042
2	0x3c5e86a5	0.013581906
3	0xbc9d6c40	-0.019216657
4	0x3d3f095e	0.046639793
5	0x3ce70212	0.02819923
6	0x3c7fc9ac	0.015612047
7	0xbc94f9bf	-0.018185494
8	0x3c8a191e	0.01685768
9	0x3d0ac271	0.03387684
10	0x3c36174d	0.011113954
11	0x3c6c6dc3	0.014430466
12	0xbc450819	-0.012025856
13	0x3d4c7a51	0.049921338
14	0x3c9ae079	0.018905865
15	0xbc0ca403	-0.008584025
16	0x3c8b9050	0.017036587
17	0x3d40a328	0.047030598
18	0xbcc3c603	-0.02389813
19	0xbb123fd8	-0.0022315886
20	0x3ccb79e6	0.0248384
21	0x3ccd1e63	0.025038904
22	0x3ce21bee	0.027601209
23	0x3d0e85a1	0.034795407
24	0x3d4643af	0.04840439
25	0x3c2a9061	0.010410399
26	0xbb8adb38	-0.0042375587
27	0x3bbac8b3	0.0057001947
28	0x3ba046e6	0.0048912643
29	0x3d0cd159	0.034379337
30	0xbb08b0ef	-0.0020857414
31	0x3d163a2a	0.036676563
32	0xbd613b02	-0.054987915
33	0xbc9d16b0	-0.019175857
34	0xbd0e411e	-0.03473007
35	0xbb390103	-0.0028229363
36	0x3bf79e7c	0.0075567346
37	0xbbc08c40	-0.005876094
38	0x3ca2f5f1	0.019892665
39	0x3badac37	0.0053000706
40	0x3d9e1cf7	0.07720368
41	0xbd7bafaa	-0.061446823
42	0xbc218986	-0.009859448
43	0xbc860927	-0.016361786
44	0xbc75d158	-0.015003525
45	0xbce8921c	-0.028389983
46	0xbd74a652	-0.059728928
47	0xbd0b1bad	-0.03396194
48	0x3ca9dca7	0.020735098
49	0x3dc6912c	0.09695658
50	0x3c485eb7	0.012229613
51	0x3c93c8f2	0.018040154
52	0x3d5a4917	0.05329236
53	0x3cb1b1d2	0.021691237
54	0x3c592468	0.013253309
55	0xbc6374c6	-0.013882821
56	0x3d072be4	0.03300084
57	0xbc880347	-0.016603125
58	0xbd801f17	-0.0625593
59	0xbd1a9ea4	-0.037748948
60	0x3d3c8228	0.046022564
61	0xbca26b97	-0.019826693
62	0x3c1dd42c	0.009633105
63	0x3cb6610c	0.022263072
64	0x3c0a525c	0.008442488
65	0x3c7b7573	0.015347826
66	0xbcded631	-0.027201744
67	0xbdd7ca22	-0.10536601
68	0xbc82e88f	-0.015980033
69	0x3d0751d9	0.03303704
70	0x3c2f0a29	0.010683575
71	0x3bb0db1b	0.005397213
72	0x3cf11221	0.02942759
73	0x3adf9d04	0.0017060344
74	0xbcf2bbdb	-0.029630592
75	0xbb8aa4df	-0.00423108
76	0xbd6c25e1	-0.05765331
77	0x3d14d422	0.036335118
78	0xbcf8920d	-0.03034308
79	0xbbb11225	-0.0054037743
80	0x3d237039	0.039901946

enhance.in_conv.0.bias f4 [3]
0	0xbd0ba68d	-0.034094382
1	0x3cf70904	0.030155666
2	0x3defcded	0.11709199

enhance.conv.0.weight f4 [3, 3, 3, 3]
0	0xbd49c7f3	-0.049262952
1	0xbbb57690	-0.0055378154
2	0xbc91622e	-0.017747011
3	0x3c78bd45	0.015181844
4	0x3d8e41a1	0.069461115
5	0x3c57469b	0.013139392
6	0xbd17c273	-0.037050676
7	0xbc347e80	-0.011016488
8	0xbcb0b422	-0.021570269
9	0x3c8387d1	0.016055973
10	0xbd0d2059	-0.034454677
11	0x3cdb94c7	0.026804341
12	0x3c08487e	0.008318065
13	0x3d026531	0.031834785
14	0x3d10d5c6	0.03536012
15	0x3cac3566	0.021021556
16	0xbd154a11	-0.03644759
17	0xbbb9227d	-0.0056498633
18	0xbb9fbbae	-0.004874668
19	0xbcd9cb89	-0.026586311
20	0xbd3b6d35	-0.045758445
21	0x399b310e	0.00029600452
22	0xbd919ce4	-0.07110003
23	0xbd842bdd	-0.06453679
24	0x3be0f910	0.006865628
25	0xbc55db92	-0.013052838
26	0xbc310360	-0.010804027
27	0xbba0b4a2	-0.0049043456
28	0x3c85f153	0.016350424
29	0xbc21e1aa	-0.009880463
30	0x3c071fa7	0.008247293
31	0xbd0f54ae	-0.034992866
32	0x3d045bed	0.03231423
33	0x3d0b0884	0.033943668
34	0x3c15ece5	0.009150718
35	0xbc03d650	-0.008046702
36	0x3c9904f1	0.018679114
37	0x3d231431	0.039814178
38	0xbcfc08cc	-0.030765913
39	0x3e1aea57	0.15128456
40	0x3d110429	0.035404358
41	0xbba468f0	-0.0050173923
42	0x3d30033f	0.042971846
43	0x3db1e89b	0.08686944
44	0x3b0872a7	0.0020820291
45	0xbb3c0c7e	-0.002869397
46	0xbd0ea2b0	-0.03482312
47	0x3d4f6708	0.050635368
48	0x3d77ac4f	0.06046706
49	0x3dbedc20	0.09319329
50	0x3d0c3199	0.034226988
51	0x3c6a8563	0.014314028
52	0x3ba9ad54	0.005178133
53	0xbb9521d4	-0.004551152
54	0xbc789419	-0.015172028
55	0xbb1e1881	-0.0024123492
56	0xbce6717c	-0.028130285
57	0x3c9cd1db	0.019143036
58	0x3cbf13a7	0.0233248
59	0x3c78461c	0.015153434
60	0x3b2f973f	0.002679303
61	0x3a2bd5b6	0.0006554978
62	0xbcfd705b	-0.030937364
63	0x3d02698d	0.031838942
64	0xbd2efa3a	-0.042719103
65	0x3cf90691	0.030398639
66	0x3cc03b50	0.023465782
67	0xbd75a1d4	-0.059968784
68	0x3c11e3b7	0.008904389
69	0x3cd89fe4	0.02644343
70	0x3d93f933	0.07225265
71	0xbad6bba6	-0.0016382828
72	0x3b10c9aa	0.0022092857
73	0x3caca440	0.021074414
74	0xbcb7e63c	-0.022448651
75	0x3a2fde2d	0.0006708827
76	0xbc9ba4e2	-0.01899952
77	0x3c56c0ce	0.013107492
78	0x3b9a450d	0.0047079385
79	0x3bb9a131	0.0056649675
80	0xbc41b85e	-0.011823742

enhance.conv.0.bias f4 [3]
0	0x3b098e19	0.0020989238
1	0x3b682d4e	0.0035427394
2	0x3b5ab108	0.003336968

enhance.conv.1.weight f4 [3]
0	0x3f80be4e	1.0058076
1	0x3f8886c3	1.0666126
2	0x3f68b6c7	0.90903896

enhance.conv.1.bias f4 [3]
0	0x3e9241cb	0.2856582
1	0xbe015e85	-0.12633713
2	0x3e9b8320	0.30373478

enhance.conv.1.running_mean f4 [3]
0	0xbcbf2d3b	-0.023336997
1	0x3cf1f251	0.02953449
2	0xba856037	-0.0010175769

enhance.conv.1.running_var f4 [3]
0	0x361247c2	2.1797464e-06
1	0x35fa1bad	1.8634506e-06
2	0x3644855b	2.92839e-06

enhance.blocks.0.0.weight f4 [3, 3, 3, 3]
0	0xbd49c7f3	-0.049262952
1	0xbbb57690	-0.0055378154
2	0xbc91622e	-0.017747011
3	0x3c78bd45	0.015181844
4	0x3d8e41a1	0.069461115
5	0x3c57469b	0.013139392
6	0xbd17c273	-0.037050676
7	0xbc347e80	-0.011016488
8	0xbcb0b422	-0.021570269
9	0x3c8387d1	0.016055973
10	0xbd0d2059	-0.034454677
11	0x3cdb94c7	0.026804341
12	0x3c08487e	0.008318065
13	0x3d026531	0.031834785
14	0x3d10d5c6	0.03536012
15	0x3cac3566	0.021021556
16	0xbd154a11	-0.03644759
17	0xbbb9227d	-0.0056498633
18	0xbb9fbbae	-0.004874668
19	0xbcd9cb89	-0.026586311
20	0xbd3b6d35	-0.045758445
21	0x399b310e	0.00029600452
22	0xbd919ce4	-0.07110003
23	0xbd842bdd	-0.06453679
24	0x3be0f910	0.006865628
25	0xbc55db92	-0.013052838
26	0xbc310360	-0.010804027
27	0xbba0b4a2	-0.0049043456
28	0x3c85f153	0.016350424
29	0xbc21e1aa	-0.009880463
30	0x3c071fa7	0.008247293
31	0xbd0f54ae	-0.034992866
32	0x3d045bed	0.03231423
33	0x3d0b0884	0.033943668
34	0x3c15ece5	0.009150718
35	0xbc03d650	-0.008046702
36	0x3c9904f1	0.018679114
37	0x3d231431	0.039814178
38	0xbcfc08cc	-0.030765913
39	0x3e1aea57	0.15128456
40	0x3d110429	0.035404358
41	0xbba468f0	-0.0050173923
42	0x3d30033f	0.042971846
43	0x3db1e89b	0.08686944
44	0x3b0872a7	0.0020820291
45	0xbb3c0c7e	-0.002869397
46	0xbd0ea2b0	-0.03482312
47	0x3d4f6708	0.050635368
48	0x3d77ac4f	0.06046706
49	0x3dbedc20	0.09319329
50	0x3d0c3199	0.034226988
51	0x3c6a8563	0.014314028
52	0x3ba9ad54	0.005178133
53	0xbb9521d4	-0.004551152
54	0xbc789419	-0.015172028
55	0xbb1e1881	-0.0024123492
56	0xbce6717c	-0.028130285
57	0x3c9cd1db	0.019143036
58	0x3cbf13a7	0.0233248
59	0x3c78461c	0.015153434
60	0x3b2f973f	0.002679303
61	0x3a2bd5b6	0.0006554978
62	0xbcfd705b	-0.030937364
63	0x3d02698d	0.031838942
64	0xbd2efa3a	-0.042719103
65	0x3cf90691	0.030398639
66	0x3cc03b50	0.023465782
67	0xbd75a1d4	-0.059968784
68	0x3c11e3b7	0.008904389
69	0x3cd89fe4	0.02644343
70	0x3d93f933	0.07225265
71	0xbad6bba6	-0.0016382828
72	0x3b10c9aa	0.0022092857
73	0x3caca440	0.021074414
74	0xbcb7e63c	-0.022448651
75	0x3a2fde2d	0.0006708827
76	0xbc9ba4e2	-0.01899952
77	0x3c56c0ce	0.013107492
78	0x3b9a450d	0.0047079385
79	0x3bb9a131	0.0056649675
80	0xbc41b85e	-0.011823742

enhance.blocks.0.0.bias f4 [3]
0	0x3b098e19	0.0020989238
1	0x3b682d4e	0.0035427394
2	0x3b5ab108	0.003336968

enhance.blocks.0.1.weight f4 [3]
0	0x3f80be4e	1.0058076
1	0x3f8886c3	1.0666126
2	0x3f68b6c7	0.90903896

enhance.blocks.0.1.bias f4 [3]
0	0x3e9241cb	0.2856582
1	0xbe015e85	-0.12633713
2	0x3e9b8320	0.30373478

enhance.blocks.0.1.running_mean f4 [3]
0	0xbcbf2d3b	-0.023336997
1	0x3cf1f251	0.02953449
2	0xba856037	-0.0010175769

enhance.blocks.0.1.running_var f4 [3]
0	0x361247c2	2.1797464e-06
1	0x35fa1bad	1.8634506e-06
2	0x3644855b	2.92839e-06

enhance.out_conv.0.weight f4 [3, 3, 3, 3]
0	0xbe0611ae	-0.13092682
1	0x3d95c298	0.073125064
2	0x3d289576	0.041158162
3	0xbe22125e	-0.15827319
4	0xbe0ae6c6	-0.13564596
5	0x3cf4fd1c	0.029905848
6	0xbdd326fb	-0.10310169
7	0xbcf2d09b	-0.029640486
8	0xbd639d1d	-0.055569757
9	0x3cdc5ea8	0.026900604
10	0xbad199d1	-0.0015991275
11	0xbbaa81fd	-0.005203484
12	0x3dab34ba	0.08359666
13	0x3e0cfa5e	0.13767383
14	0x3cc7f762	0.024409954
15	0x3d21a81d	0.039466966
16	0xbd35ab34	-0.044352725
17	0xbce800d8	-0.028320715
18	0x3ce808ea	0.028324563
19	0xbe829ce8	-0.25510335
20	0xbdf58436	-0.11988108
21	0xbe5e3482	-0.21699718
22	0xbc8b1810	-0.016979247
23	0xbdd173a4	-0.10227135
24	0xbdf7d917	-0.121019535
25	0x3d21147f	0.039326187
26	0xbd0ece99	-0.034864996
27	0xbdbd70b5	-0.09250013
28	0x3d411eeb	0.047148626
29	0x3c9dc852	0.01926056
30	0xbe0f794e	-0.14011118
31	0xbe0f69cf	-0.14005207
32	0x3c9ac448	0.018892422
33	0xbdb54352	-0.08850731
34	0xbc2c8f48	-0.010532208
35	0xbd232abb	-0.039835673
36	0x3cd9d6e8	0.026591733
37	0xbc648a08	-0.013948925
38	0xbd12fd74	-0.035886243
39	0x3d764aec	0.060130045
40	0x3e0bd8c8	0.13656914
41	0x3bd90c85	0.006623807
42	0x3d89c6c2	0.06727363
43	0xbd349ab5	-0.044092853
44	0xbc8fbfb8	-0.017547473
45	0xbc0da23e	-0.008644639
46	0xbe53a990	-0.20670152
47	0xbdfe70da	-0.124238685
48	0xbe17415c	-0.14771026
49	0x3c5b8246	0.013397759
50	0xbdd14978	-0.10219091
51	0xbe241d95	-0.1602691
52	0x3d55683d	0.052101362
53	0xbd2d8a61	-0.042368297
54	0x3aa8734b	0.0012851743
55	0xbd142387	-0.036166694
56	0xbc90ab63	-0.017659849
57	0xbe02860b	-0.12746446
58	0xbe3f2c7d	-0.18669315
59	0xbcfadf91	-0.030624183
60	0xbd8d4219	-0.06897373
61	0x3d89a364	0.067206174
62	0x3cd65621	0.026164116
63	0x3cb9e5e6	0.022692632
64	0xbdac0460	-0.08399272
65	0xbd8de73f	-0.06928872
66	0x3d34ac34	0.04410954
67	0x3d8bcbcb	0.0682598
68	0xbd53f8a3	-0.05175079
69	0x3ddb79bd	0.10716579
70	0x3ccc12d4	0.024911322
71	0x3d0e51e7	0.034746077
72	0x3b3e417d	0.0029030733
73	0xbe033fe0	-0.12817335
74	0xbdff1262	-0.12454678
75	0xbdcf9b79	-0.10137076
76	0x3dbc0803	0.091812156
77	0xbd2fb766	-0.04289951
78	0xbe653838	-0.22384727
79	0xbd24ef6f	-0.040267404
80	0xbdc7bfe7	-0.09753399

enhance.out_conv.0.bias f4 [3]
0	0xbe7af127	-0.24506055
1	0xbe7107c2	-0.23538116
2	0xbe8b0a0c	-0.27156103

calibrate.in_conv.0.weight f4 [16, 3, 3, 3]
0	0x3d005827	0.03133407
1	0xbc02bf56	-0.007980188
2	0xbc9997c3	-0.018749123
3	0xbae7a5f0	-0.0017673355
4	0xbc3c82ae	-0.011505766
5	0x3c4eeb63	0.012629363
6	0xbb91ef28	-0.0044535585
7	0xba24f8fb	-0.00062932045
8	0x3a1008d5	0.000549448
9	0xbc1152be	-0.008869825
10	0xbc967c29	-0.018369751
11	0x3d0d7a5a	0.03454051
12	0x3cd66ff6	0.026176434
13	0xba15e4ca	-0.0005717991
14	0x3cefa268	0.029252246
15	0xba5c6928	-0.00084080035
16	0x3becd6ef	0.0072277705
17	0x3cbbfffd	0.022949213
18	0x3d245e6e	0.040129118
19	0x3cd51e4c	0.026015423
20	0xbbc1e25e	-0.0059168776
21	0xbcbf07f0	-0.023319215
22	0x3d030029	0.031982575
23	0x3cf967ad	0.030444944
24	0x3ca0776f	0.0195882
25	0xbb8fa8b1	-0.0043841233
26	0x3a73c830	0.00092995446
27	0x3ce202e6	0.027589273
28	0x3c249d9a	0.010047341
29	0x3cf4c434	0.029878713
30	0x3bca2550	0.006168999
31	0xbd0432e1	-0.032275084
32	0x3b5014ec	0.0031750752
33	0xbc82aa76	-0.015950423
34	0xbc335477	-0.010945431
35	0xbbddef56	-0.006772916
36	0xbd009b16	-0.0313979
37	0x3ceeaa3e	0.029133912
38	0xbce9bbbf	-0.028531907
39	0xbd32f806	-0.043693565
40	0x3c6f814b	0.014618228
41	0x3d37e34d	0.044894505
42	0xbc39afce	-0.011333419
43	0x3d0025fe	0.031286232
44	0xbbf8b7b4	-0.0075902585
45	0xbb703f11	-0.0036658684
46	0xbd00c27b	-0.03143547
47	0x3b3acf2c	0.0028504832
48	0x3d0c03b9	0.034183238
49	0x3c77c219	0.01512196
50	0xbd4c8d6f	-0.04993957
51	0x3d351d0d	0.044217158
52	0xbc694758	-0.014238201
53	0x3c1017c8	0.008794732
54	0x3bdc57eb	0.006724348
55	0x3c43f7df	0.011960953
56	0xbd8c6d65	-0.06856803
57	0x3cfd2c69	0.030904965
58	0xbd6ad874	-0.057335332
59	0xbd9d4771	-0.07679642
60	0xbce67cc1	-0.02813566
61	0x3c96a43c	0.01838886
62	0xbc9670a4	-0.018364258
63	0xbc652c73	-0.013987648
64	0x3cf24b05	0.029576788
65	0x3c9a9304	0.01886893
66	0x3c8a4635	0.01687918
67	0xbc994737	-0.018710716
68	0xbc5337a0	-0.01289168
69	0x3c68688a	0.01418508
70	0xbce648af	-0.02811083
71	0x3c7806c0	0.015138328
72	0x3b773917	0.0037723237
73	0xbd0710c5	-0.032974977
74	0x3ccbdc1b	0.024885228
75	0xbd7b71f3	-0.061387967
76	0x3d2109ff	0.039316174
77	0x3c173fd8	0.00923153
78	0x3cb9616b	0.02262946
79	0x3b08323d	0.0020781897
80	0x3c3d0fb3	0.0115393875
81	0xbbfca565	-0.0077101463
82	0xbbd2602d	-0.0064201565
83	0xbc39038a	-0.011292348
84	0xbd2aa3eb	-0.04166023
85	0x3cdd5096	0.027015965
86	0x3dc7a81a	0.0974886
87	0x3c783d62	0.015151354
88	0x3c856a88	0.01628615
89	0x3d2835ef	0.04106706
90	0x3c9adde8	0.018904641
91	0xbcd92438	-0.026506528
92	0x3ba417c9	0.005007718
93	0xbb8be100	-0.0042687654
94	0x3c5378be	0.012907205
95	0x3c95b532	0.018274877
96	0xbbed4edf	-0.007242068
97	0xbaba3b68	-0.0014208378
98	0xbc7cca21	-0.015429051
99	0x3afde8b8	0.0019371724
100	0x3c3041d6	0.010757884
101	0xbc20a8d1	-0.009805874
102	0x3d13cbf7	0.036083188
103	0xbc84774f	-0.016170172
104	0xbbb7a7c3	-0.0056047156
105	0xbc82258e	-0.015887048
106	0xbbd5eb6b	-0.006528308
107	0xbc9c17f7	-0.019054396
108	0x3d4d32a7	0.050097134
109	0xbc86ee85	-0.016471157
110	0xbc4ed300	-0.0126235485
111	0xbd53df65	-0.051726718
112	0x3b3a46d9	0.0028423576
113	0xbb784f5b	-0.0037889096
114	0xbca2474b	-0.019809386
115	0x3c479285	0.012180929
116	0xbba5c352	-0.0050586844
117	0xbb352ebf	-0.002764627
118	0x3d55917b	0.052140694
119	0x3c1326a8	0.008981384
120	0xbc3957f4	-0.011312474
121	0x3d6436ec	0.05571644
122	0x3c05562d	0.008138222
123	0x3ce44e30	0.027869314
124	0x3a2a7d19	0.00065036264
125	0x3c0b45d7	0.008500538
126	0x3d12d664	0.03584899
127	0x3c2ed859	0.0106716985
128	0x39a73475	0.00031891806
129	0xbcbb2360	-0.022844017
130	0xbc236c01	-0.009974481
131	0xbcacbf02	-0.021087173
132	0xbc1fce06	-0.00975371
133	0xbc79fe96	-0.015258452
134	0x3ba373cf	0.0049881707
135	0x3c8ff5c2	0.017573241
136	0xbd421432	-0.04738254
137	0x3c74608d	0.014915598
138	0x3ae470ca	0.0017428633
139	0x3af091d1	0.0018354004
140	0xbb83c63c	-0.004021434
141	0xbbd5927d	-0.006517707
142	0x3bc971b1	0.0061475863
143	0xbc0678d8	-0.008207522
144	0x3c838f5f	0.016059576
145	0xbd7c24f1	-0.061558668
146	0xbc3b634a	-0.011437247
147	0xb87a967f	-5.9744805e-05
148	0x3d4ed461	0.05049551
149	0xbcb1e9dd	-0.02171796
150	0xbc8e858f	-0.01739767
151	0x3c8556d5	0.016276756
152	0xba9d4f5d	-0.0012001802
153	0xbcbf4c00	-0.02335167
154	0x3d22efcf	0.03977948
155	0xbc2c8035	-0.010528614
156	0xbcb3dbd1	-0.021955403
157	0xbc9e219f	-0.019303141
158	0x3bfb1d10	0.0076633766
159	0x3d0d7f17	0.03454503
160	0xbc9b6e07	-0.018973364
161	0x3c81e540	0.015856385
162	0x3cec9476	0.028879385
163	0x3c658fd3	0.014011341
164	0xbc8a464e	-0.016879227
165	0xbbabc537	-0.0052420157
166	0xbd06b4c3	-0.03288723
167	0xbbe5a9d9	-0.007008773
168	0xbc8f7440	-0.017511487
169	0x3d52d798	0.051475137
170	0xbc53f7a9	-0.012937465
171	0xbd0cef80	-0.034408092
172	0xbb964612	-0.0045859898
173	0x3d3946c8	0.045233518
174	0xbc89c59a	-0.016817857
175	0x3d064e11	0.032789294
176	0xbc9da3ad	-0.019243086
177	0x3c32c3d3	0.010910946
178	0xbd375e10	-0.04476744
179	0x3ca1c300	0.019746304
180	0x3b91f4bc	0.0044542234
181	0xbc50d1eb	-0.012745361
182	0xbc9784a4	-0.018495865
183	0x3cdb42b5	0.026765207
184	0xbc82ff03	-0.01599074
185	0x3ce5e3c6	0.028062712
186	0x3bdf5b6b	0.006816318
187	0xbba7029a	-0.0050967457
188	0xbbef6df7	-0.00730681
189	0x3c4227d5	0.011850317
190	0x3a618e98	0.0008604317
191	0xbd884c5b	-0.06655189
192	0x3b861db4	0.0040928964
193	0x3d5f2b0f	0.054484423
194	0xbc90aabc	-0.017659537
195	0x3c871ad8	0.016492292
196	0xbcb85f25	-0.022506306
197	0x3cbe85cf	0.023257164
198	0xbc05a4fc	-0.008157011
199	0x3cdfd5e9	0.02732368
200	0x3d87ba4b	0.066273294
201	0xbc5b166c	-0.013372045
202	0xbc89e31c	-0.016831927
203	0xbd3d8f88	-0.04627946
204	0xbc54754c	-0.012967419
205	0x3d03cee9	0.032179747
206	0xbccc93ba	-0.024972785
207	0xbb329aea	-0.002725298
208	0xbd14a708	-0.036292106
209	0x3be3d083	0.006952347
210	0x3ad75f59	0.0016431614
211	0xbccf685f	-0.025318323
212	0x3d842eca	0.06454237
213	0x3aab6619	0.0013076692
214	0xbc73a92c	-0.014871877
215	0x3b9d675e	0.004803582
216	0xbc3cc425	-0.011521374
217	0x3bea99d0	0.007159449
218	0x3cb33914	0.021877803
219	0xbc921aa1	-0.017834963
220	0x3c2c434e	0.010514094
221	0x3ca71f1b	0.020400574
222	0x3cef926c	0.029244624
223	0x3cd56453	0.026048815
224	0x3d4c0d09	0.04981712
225	0xbbd196f8	-0.0063961707
226	0x3c3e0c24	0.011599574
227	0xbc902fc5	-0.017600903
228	0x3b95cf3a	0.0045718225
229	0xba90ea0d	-0.0011056081
230	0xbd40962c	-0.047018215
231	0xbb879c11	-0.0041384776
232	0xbd6c8ebc	-0.05775331
233	0xbd461d3a	-0.048367716
234	0x3b709a2b	0.0036712985
235	0x3c2cb3be	0.010540901
236	0xbaa2a7f5	-0.0012409674
237	0x3c029a8a	0.007971415
238	0x3c0e64a7	0.00869099
239	0x3d3ba59b	0.04581223
240	0x3c181827	0.009283102
241	0xbce48826	-0.027896952
242	0x3d11c80a	0.035591163
243	0xbcc1d4fd	-0.023661131
244	0x3c8f9221	0.017525734
245	0x3acde1a1	0.0015707501
246	0x3cfda71c	0.030963473
247	0xbd1343c2	-0.03595329
248	0x3c302a44	0.010752264
249	0x3ce7f456	0.02831475
250	0xbd104c01	-0.035228733
251	0xbbd81fef	-0.0065956037
252	0x3c9e62ef	0.019334285
253	0xbd0cc341	-0.034365896
254	0xbab8c984	-0.0014098142
255	0x3b6e6468	0.0036375765

calibrate.in_conv.0.bias f4 [16]
0	0xbbc9ee08	-0.0061624087
1	0x3b3f8d6b	0.0029228579
2	0x3c04451c	0.008073118
3	0xbb0b29e0	-0.0021234676
4	0x3c45f97c	0.0120834075
5	0x3bde2cac	0.0067802276
6	0x3b07866b	0.0020679485
7	0x3b4fa95a	0.0031686635
8	0x3c3c1b87	0.011481172
9	0x3b8377dc	0.004012091
10	0x3b9b9513	0.0047479956
11	0x3be0d9a4	0.0068618823
12	0x3c92445c	0.017854862
13	0x3cde42dd	0.027131492
14	0x3b1fa98e	0.0024362537
15	0x3b2217b5	0.0024733369

calibrate.in_conv.1.weight f4 [16]
0	0x3f6b1b3a	0.9183842
1	0x3f4dd278	0.80399275
2	0x3f45c66d	0.772559
3	0x3f579ceb	0.8422381
4	0x3f59bdf0	0.85055447
5	0x3f381e79	0.719215
6	0x3f3d943d	0.7405432
7	0x3f69994f	0.91249555
8	0x3f5e9007	0.8693852
9	0x3f487869	0.7830873
10	0x3f48e140	0.78468704
11	0x3f2ae404	0.66754174
12	0x3f6825b3	0.90682524
13	0x3f432187	0.76223034
14	0x3f621b97	0.8832335
15	0x3f5a5823	0.85290736

calibrate.in_conv.1.bias f4 [16]
0	0xbc25dfd5	-0.0101241665
1	0x3df4675a	0.11933775
2	0x3dbe2b15	0.09285561
3	0xbc0304ae	-0.007996721
4	0x3cc09250	0.023507267
5	0x3de40118	0.11133021
6	0x3df0af58	0.11752194
7	0x3e24d968	0.16098559
8	0x3d809568	0.06278497
9	0x3df98173	0.121828936
10	0x3dd2880a	0.10279854
11	0x3dcd04bf	0.10010671
12	0x3cee7320	0.02910763
13	0x3cd8e97a	0.026478518
14	0x3cd98e9e	0.026557263
15	0x3e3a8730	0.18215632

calibrate.in_conv.1.running_mean f4 [16]
0	0x3c0e15d7	0.008672199
1	0x3940ed30	0.00018398906
2	0xbbd70fd5	-0.0065631666
3	0x3bc2c2fe	0.005943655
4	0x3b9dbb87	0.0048136148
5	0xbb0a8fcc	-0.0021142839
6	0x3a3c3898	0.0007180064
7	0x379c83fc	1.865811e-05
8	0x3c43f4fb	0.011960263
9	0xbc5c2058	-0.013435446
10	0xbb10a3de	-0.0022070329
11	0xba7da638	-0.00096759526
12	0x3c35d50a	0.011098156
13	0x3d199f7f	0.037505623
14	0x3a7664f6	0.00093991996
15	0xb9ae628a	-0.00033261284

calibrate.in_conv.1.running_var f4 [16]
0	0x3910a866	0.00013795643
1	0x36d59f48	6.3664374e-06
2	0x3886a7a3	6.420843e-05
3	0x385f5bb6	5.3252756e-05
4	0x3879e356	5.957795e-05
5	0x36d0f0ed	6.2269305e-06
6	0x36d61324	6.3799253e-06
7	0x369bbfbd	4.6416812e-06
8	0x392b4658	0.00016334036
9	0x39740da4	0.00023274735
10	0x3786f63f	1.6088712e-05
11	0x38951ec3	7.1106035e-05
12	0x3961bd9a	0.00021528304
13	0x3af539b9	0.0018709219
14	0x37c55afa	2.3526594e-05
15	0x368058d5	3.8250387e-06

calibrate.convs.0.weight f4 [16, 16, 3, 3]
0	0xbd1d7315	-0.03843983
1	0x3b971e56	0.0046117706
2	0xba9af159	-0.0011821195
3	0xbd496073	-0.049164247
4	0xbca471a6	-0.020073723
5	0xbcab360d	-0.020899797
6	0xbbfa8b94	-0.0076460335
7	0xbc6ac663	-0.014329526
8	0xbcbbcea3	-0.02292568
9	0x3c4578bc	0.012052711
10	0x3ac08497	0.0014687952
11	0xbda4df2b	-0.080503784
12	0x3d3fe132	0.046845622
13	0xbbf5ddc8	-0.007503245
14	0xbd823210	-0.06357205
15	0x3c240287	0.010010368
16	0x3cb13f6c	0.021636687
17	0x3cfc59bd	0.03080451
18	0xbd06a30a	-0.03287033
19	0x3ab2e1b0	0.0013647582
20	0xbd292222	-0.041292317
21	0x3cb50d54	0.022101082
22	0xbd27fea7	-0.04101434
23	0x3cfe73c3	0.031061059
24	0xbbae8f98	-0.0053271763
25	0x3c977a69	0.018490987
26	0x3c7a71fc	0.015285965
27	0xbc328447	-0.010895795
28	0xb8e28373	-0.00010801004
29	0x3c31a3df	0.010842293
30	0xbdb6aee9	-0.0892008
31	0xbc1eefe6	-0.009700751
32	0xbc5560a5	-0.01302353
33	0x3c09dd28	0.008414544
34	0x3c0d57b0	0.008626863
35	0xbb984ad2	-0.004647591
36	0x3c14b2c4	0.009075824
37	0x3c38c6c7	0.011277861
38	0x3c98ca6e	0.018651213
39	0x3d1249df	0.03571498
40	0x3c937720	0.01800114
41	0x3d448e25	0.047987122
42	0x3c992ab8	0.018697128
43	0xbcff206b	-0.031143388
44	0xbd8594e8	-0.06522542
45	0xbc0d6f30	-0.008632466
46	0x3c75f974	0.015013088
47	0xbd2b2da4	-0.041791573
48	0xbb106c99	-0.0022037385
49	0xbbe0e1b2	-0.0068628425
50	0x3c8ca992	0.017170701
51	0xba4c1539	-0.0007785145
52	0x3c7a184e	0.015264584
53	0x3d477efa	0.04870508
54	0xbc3d43ba	-0.011551792
55	0x369db2e9	4.6997925e-06
56	0xbbb4d571	-0.0055186083
57	0xbd19fcb2	-0.037594505
58	0xba6f9b88	-0.00091403024
59	0xbd224d32	-0.0396244
60	0xbc4a3350	-0.012341335
61	0xbbcf4ec7	-0.0063265297
62	0xbc14c8ac	-0.009081047
63	0xbc76ef71	-0.015071736
64	0x3d44cd88	0.048047572
65	0xbaf33d3a	-0.0018557676
66	0xbd9acaa4	-0.07558182
67	0xbc0db572	-0.008649217
68	0x3c4cb684	0.012494687
69	0xbd35e5f1	-0.044408742
70	0x3d1b15a6	0.037862442
71	0x3c9b3116	0.018944304
72	0xbd0ecf21	-0.034865502
73	0x3d30671b	0.04306708
74	0xbbd9a2ab	-0.006641706
75	0xbd3f8971	-0.046761934
76	0xbb40d0db	-0.0029421363
77	0xbcb9692d	-0.02263316
78	0x3c023880	0.007948041
79	0xbce80d7d	-0.028326744
80	0xbc819881	-0.01581979
81	0xbd0fbdb8	-0.03509304
82	0xbcd3b2bd	-0.025842065
83	0xbd0afc97	-0.033932295
84	0x3ca0bdbc	0.019621722
85	0xbc8180eb	-0.015808543
86	0x3cf10d56	0.029425304
87	0xbd10cfba	-0.035354353
88	0x3c766fa9	0.01504127
89	0xbc04775a	-0.008085096
90	0x3c4bbab1	0.012434647
91	0x3c50b057	0.012737355
92	0xbce6f1aa	-0.028191406
93	0x3cf5628a	0.029954214
94	0x3d0b3015	0.0339814
95	0xbc2cbb63	-0.010542723
96	0x3b4122ad	0.0029470131
97	0xbcde178f	-0.027110843
98	0xbd37806d	-0.04480021
99	0xbc0049d8	-0.007830106
100	0x3c1bad12	0.009501712
101	0x3d0bb015	0.03410347
102	0xbc8c38ed	-0.017116988
103	0x3b8dabf2	0.004323476
104	0x3d692351	0.056918446
105	0x3c24458c	0.010026347
106	0x3cdd0a17	0.02698235
107	0x3d6d5008	0.057937652
108	0x3b90f04f	0.0044231783
109	0xbd341d57	-0.043973293
110	0x3d160bff	0.036632534
111	0x3bcff6bf	0.006346553
112	0x3d45c67b	0.04828499
113	0xbcb4c4af	-0.022066442
114	0x3d549527	0.051900055
115	0x3d6af501	0.05736256
116	0xbc2021bd	-0.009773669
117	0xbc295739	-0.010335737
118	0x3c83346c	0.016016208
119	0xbd40e614	-0.04709442
120	0xbbc5e908	-0.0060397424
121	0xbbb5314b	-0.005529558
122	0xbc40cd87	-0.011767752
123	0xbbbd365d	-0.005774303
124	0xbcb22482	-0.021745924
125	0x3b13a237	0.0022527108
126	0x3cebb275	0.028771618
127	0xbc0d5477	-0.008626095
128	0xbd138105	-0.036011714
129	0xbc0a125a	-0.008427227
130	0x3b85879f	0.004075005
131	0xbd32fc6a	-0.043697752
132	0xbc0de287	-0.008659965
133	0xbd58979b	-0.052878957
134	0xbd760ca9	-0.060070667
135	0xbca7b409	-0.02047159
136	0x3d5baff4	0.0536346
137	0x3d55b6da	0.052176334
138	0x3cdc65c7	0.026904
139	0xbdc5448f	-0.09632217
140	0xbd4315f5	-0.04762836
141	0xbd003763	-0.03130282
142	0xbcb46f8c	-0.022025846
143	0xbc827bc7	-0.015928162
144	0x3c8dc03a	0.017303575
145	0x3c6b04c3	0.014344397
146	0xbc54d5d5	-0.012990435
147	0xbc7613a7	-0.015019334
148	0xbcbbf4cf	-0.022943882
149	0x3c100b98	0.008791827
150	0xbc9dd3b8	-0.019265994
151	0x3c2a080d	0.010377896
152	0xbd2016ac	-0.03908412
153	0x3c9bb9ed	0.019009555
154	0xbc77ec3c	-0.015132006
155	0x3ccbf9b7	0.024899347
156	0xbb93d420	-0.0045113713
157	0x3d614dd6	0.05500587
158	0xbcc99e92	-0.024611745
159	0xbcdbd5a1	-0.026835265
160	0xbc00eeb5	-0.007869412
161	0xbc887391	-0.016656669
162	0x3bcac1dd	0.006187661
163	0xbc9e546e	-0.019327369
164	0x3b9c46a4	0.004769163
165	0x3cb32dfd	0.021872515
166	0x3d08cdf5	0.03339954
167	0x3c699043	0.014255586
168	0x3d6fcc24	0.058544293
169	0x3d6bf7e9	0.057609472
170	0x3c35a8f1	0.011087642
171	0xbc34df55	-0.011039575
172	0x3b785e82	0.0037898128
173	0xbc5f1932	-0.013616847
174	0xbcc1e7b1	-0.02367005
175	0xbba9abff	-0.0051779742
176	0x3c750bd9	0.014956438
177	0x3ca27520	0.01983124
178	0x3cdda094	0.027054109
179	0x3af3e81b	0.0018608602
180	0x3c838157	0.016052885
181	0xbc63774a	-0.013883421
182	0x3d0e0237	0.03467008
183	0x3c52f674	0.012876142
184	0x3c854502	0.016268257
185	0x3d03fc11	0.03222281
186	0xbc55ed8c	-0.013057124
187	0xbcfbdcf0	-0.030745
188	0xbd2d0d2a	-0.042248882
189	0x3b84f1bb	0.004057137
190	0xbce7378a	-0.028224725
191	0x3bd76b41	0.006574065
192	0x3caa9f0a	0.020827789
193	0xbd3886ce	-0.045050435
194	0x3c09aad4	0.008402545
195	0xbc55351f	-0.013013153
196	0x3d4296bd	0.047507036
197	0x3b9081f5	0.0044100233
198	0x3bb61c31	0.00555756
199	0xbd33710d	-0.043808986
200	0x3cb112f9	0.021615492
201	0x3cfa57f4	0.030559517
202	0xbca28324	-0.019837923
203	0x3d5adaae	0.053431205
204	0x3cb53e90	0.022124559
205	0x3be25e2e	0.0069081997
206	0xbc9dc78e	-0.019260194
207	0xba54ece2	-0.00081224565
208	0x3a93053a	0.0011216768
209	0xbb2ab327	-0.0026046725
210	0x3cfb6812	0.030689273
211	0xbd6c6246	-0.05771091
212	0xbbf34122	-0.007423536
213	0x3da614d0	0.081094384
214	0xbbae52e6	-0.005319941
215	0xbcaa0c6c	-0.020757876
216	0xbcf27eb2	-0.029601429
217	0xbb31bb39	-0.002711965
218	0xbb6cbbe0	-0.0036122724
219	0xbd090576	-0.033452474
220	0x3c560d26	0.013064658
221	0xbab63962	-0.00139026
222	0xbd02c04a	-0.031921662
223	0xbccb0dc6	-0.024786841
224	0xbc8888f0	-0.01666686
225	0x3cf40673	0.029788231
226	0x3d048368	0.03235188
227	0xbca7d787	-0.020488514
228	0x3d312c8f	0.043255385
229	0x3b2400ef	0.002502497
230	0x3bf21243	0.007387431
231	0x3c4c49ef	0.012468799
232	0x3d07daa3	0.033167493
233	0x3cfdbbe4	0.030973382
234	0xbb036098	-0.0020046588
235	0x3a10fd24	0.0005530885
236	0xbb7c1f71	-0.003847089
237	0x3ab71800	0.0013968945
238	0x3d3c9f52	0.046050377
239	0xbcd5ceaf	-0.026099531
240	0x3cb43a31	0.022000404
241	0x3c20bf15	0.0098111825
242	0xbd01d465	-0.031696696
243	0x3badca66	0.005303669
244	0xba8541ae	-0.0010166669
245	0x3b8400e0	0.0040284246
246	0xbc90c783	-0.01767326
247	0xbcbc338a	-0.022973794
248	0x3bc8da1d	0.0061295168
249	0x3b156d8d	0.0022800893
250	0x3d2355a2	0.039876588
251	0x3c6de50e	0.014519943
252	0xbb6e1b88	-0.0036332328
253	0x3bfdc11e	0.0077439686
254	0xbd092aee	-0.033488207
255	0x3ae8348b	0.0017715854

calibrate.convs.0.bias f4 [16]
0	0x3cf944f9	0.030428397
1	0xbd0baaed	-0.034098554
2	0x3cb36222	0.02189738
3	0xbd73a6ae	-0.05948513
4	0xbcffc80d	-0.031223321
5	0xbd88b02b	-0.066742264
6	0x3c42fed4	0.011901576
7	0xbd8a294d	-0.06746159
8	0xbc573e02	-0.013137342
9	0x3ce05b27	0.027387215
10	0x3d07e28f	0.033175047
11	0xbcdab350	-0.026696831
12	0x3da4e37e	0.08051203
13	0xbcdd606b	-0.027023515
14	0xbd396943	-0.0452664
15	0xbd7d0afb	-0.06177805

calibrate.convs.1.weight f4 [16]
0	0x3f509bbd	0.8148764
1	0x3f4b619e	0.79445827
2	0x3f3030d1	0.6882449
3	0x3f4c6f6a	0.79857504
4	0x3f2cd9bc	0.67519736
5	0x3f60505f	0.87622637
6	0x3f428dc2	0.75997555
7	0x3f609176	0.87721956
8	0x3f2ec9d1	0.682767
9	0x3f2c67a1	0.67345625
10	0x3f4b9ff2	0.7954093
11	0x3f387f8d	0.7206963
12	0x3f6803ff	0.906311
13	0x3f3edb58	0.7455344
14	0x3f64c5d9	0.8936439
15	0x3f4e879a	0.8067566

calibrate.convs.1.bias f4 [16]
0	0x3d83b814	0.064315945
1	0xbca91f8d	-0.020644927
2	0x3d85ce07	0.06533437
3	0xbd7d1921	-0.061791543
4	0xbce3554f	-0.02775064
5	0xbd527e42	-0.05138994
6	0x3da3fda5	0.08007363
7	0xbda51447	-0.08060508
8	0xbbd97ee9	-0.0066374433
9	0x3cd0ef08	0.025504604
10	0x3d2d3dbc	0.042295203
11	0x3c0f2e72	0.008739101
12	0x3d9d2b07	0.076742224
13	0xbc8cfb68	-0.017209724
14	0x3bd27a8b	0.0064232997
15	0xbd1b7eea	-0.03796283

calibrate.convs.1.running_mean f4 [16]
0	0xbed0a3d2	-0.40749985
1	0x3e57033d	0.20997329
2	0xbe56a1fc	-0.2096023
3	0x3f1641ac	0.5869396
4	0x3e24e3f1	0.16102578
5	0x3e9cd762	0.30633074
6	0xbf038eb8	-0.51389647
7	0x3f1e5021	0.61841017
8	0x3da5c247	0.08093696
9	0x3db30c1e	0.087425455
10	0xbe7bcfc9	-0.24590982
11	0x3ebacc3d	0.36483946
12	0xbf3045f5	-0.68856746
13	0x3e190569	0.1494347
14	0xbe1bcd41	-0.15215017
15	0x3ecc9e58	0.39964557

calibrate.convs.1.running_var f4 [16]
0	0x3e8a077e	0.2695884
1	0x3e6d892d	0.2319686
2	0x3eb0223a	0.34401113
3	0x3e4d0307	0.20020686
4	0x3f22a398	0.63530874
5	0x3f14d391	0.58135325
6	0x3f10291b	0.5631272
7	0x3eb087b1	0.34478524
8	0x3fb251ea	1.3931248
9	0x3e39caf9	0.18143834
10	0x3dfc4ec5	0.123197116
11	0x3e6906a0	0.22756433
12	0x3eee5685	0.46550384
13	0x3f52443c	0.8213537
14	0x3dec50ad	0.11538825
15	0x3d8b4267	0.067997746

calibrate.convs.3.weight f4 [16, 16, 3, 3]
0	0x3d73a0fa	0.05947969
1	0x3a40d69e	0.0007356199
2	0x3d2e6780	0.042579174
3	0x3d7bc71f	0.061469194
4	0x3d35fa59	0.044428203
5	0x3ccc8396	0.024965089
6	0x3b3b8f95	0.0028619517
7	0x3d0350ca	0.03205947
8	0x3ce24859	0.027622389
9	0xbba07b85	-0.004897537
10	0x3bddaf03	0.006765248
11	0xbc56710d	-0.013088477
12	0xbbd19b01	-0.0063966517
13	0xbbd49cb0	-0.006488405
14	0x3c021233	0.007938909
15	0x3cb97dae	0.022642937
16	0xbbb41ec8	-0.0054968335
17	0x3c080dbc	0.008304056
18	0xbbbf6ae8	-0.0058416016
19	0x3b64fb2c	0.003493975
20	0xbbd36132	-0.0064507956
21	0x3c45ac6e	0.012065036
22	0x3c44b5ad	0.0120062055
23	0xbc5a4e14	-0.013324279
24	0x3b290f1c	0.002579636
25	0xbcbb15ff	-0.022837637
26	0xbc7e3b11	-0.015517012
27	0x3cd2aa96	0.025716107
28	0x3cd16c87	0.025564445
29	0x3d1267b9	0.03574345
30	0x3cef2295	0.029191295
31	0x39e8a691	0.0004437459
32	0x3c1cd375	0.0095719
33	0xbcc6684b	-0.024219653
34	0xbcb270d7	-0.021782322
35	0x3ccdc0fd	0.025116438
36	0xbcc99a92	-0.024609838
37	0xbc9c826f	-0.019105164
38	0x3c299ffd	0.010353086
39	0x3c14765a	0.00906142
40	0x3a403e92	0.00073335425
41	0x3bee59ce	0.007273889
42	0xbca50137	-0.02014218
43	0x3c97f801	0.018550875
44	0x3be28eb3	0.0069139837
45	0x3ca5b2db	0.020226886
46	0x3cc4b5e4	0.024012513
47	0xbc9c0acd	-0.019048119
48	0x3bfa14c5	0.0076318705
49	0x3c1cbe2c	0.009566825
50	0x3cfc1218	0.030770347
51	0x3b6f738e	0.0036537382
52	0x3ca5c0f2	0.020233605
53	0x3d2a3dac	0.04156272
54	0x3c174e1f	0.009234934
55	0x3cdb2fce	0.026756193
56	0x3d3c4242	0.045961626
57	0x3d4ab1c6	0.049485944
58	0x3c9c1b61	0.019056024
59	0x3d0fb5bf	0.035085436
60	0x3d17096d	0.036874224
61	0x3cf4820f	0.029847173
62	0x3d3f5567	0.046712305
63	0x3d111621	0.035421494
64	0x3c0eac53	0.0087080775
65	0x3c13e224	0.009026084
66	0x3ad3e0f7	0.0016165067
67	0x3d606d45	0.054791708
68	0x3d044395	0.032291014
69	0x3ca455cb	0.02006044
70	0xbc5d3c5f	-0.013503163
71	0x3c2c1ce5	0.010504936
72	0xbcb69e03	-0.022292143
73	0x3d4f7f60	0.050658584
74	0x3c8704f8	0.016481861
75	0x3c9cf589	0.019160049
76	0x3cd5982a	0.026073534
77	0x3cfd5b8d	0.030927444
78	0x3b6dd8dd	0.003629259
79	0xbc85632f	-0.016282646
80	0x3c9fe441	0.01951802
81	0x3b3e3a71	0.0029026533
82	0xbb705467	-0.0036671401
83	0xbc38cb7a	-0.011278981
84	0x3c6d7179	0.014492386
85	0xbcc6b924	-0.024258204
86	0xbbe1e1ff	-0.006893396
87	0xbb053f21	-0.0020331817
88	0xbc9e930e	-0.01935723
89	0xbbed52f0	-0.007242553
90	0xbd0c7797	-0.034293737
91	0xbd8235bf	-0.063579075
92	0xbd7530a2	-0.059860833
93	0xbd5c0071	-0.05371136
94	0xbd816970	-0.06318939
95	0xbd56f7a9	-0.05248228
96	0xbcd08285	-0.025452862
97	0x3c8d409f	0.017242728
98	0xbd26534d	-0.040606786
99	0x3bc3d2ed	0.005976072
100	0x3c21ffbe	0.009887634
101	0x3ccc89a0	0.024967968
102	0x3cb2cb01	0.021825315
103	0x3b116d67	0.0022190453
104	0x3c85accb	0.016317746
105	0xbb4707f3	-0.0030369728
106	0x3b2afe50	0.0026091523
107	0x3c06a0f3	0.008217084
108	0xba3ad000	-0.00071263313
109	0xbcf3ce96	-0.029761594
110	0xbd564777	-0.052314248
111	0xbc9b7e15	-0.018981019
112	0xbc8271f9	-0.015923487
113	0xbd1e08c5	-0.038582582
114	0xbcb08b52	-0.021550808
115	0xbbfd7bff	-0.0077357288
116	0xbcdb0c59	-0.026739286
117	0x3cf32d6c	0.029684745
118	0x3cd81412	0.026376758
119	0xbcb27403	-0.021783834
120	0xbc0cc0bb	-0.008590872
121	0x3cae0909	0.021244543
122	0x3c3be985	0.01146925
123	0x3c17bfaf	0.0092620095
124	0xbc89a915	-0.016804257
125	0xbc7169de	-0.014734713
126	0xbd139e5d	-0.0360397
127	0x3d0022e6	0.03128328
128	0x3d40cecb	0.047072213
129	0xbc7a9d6f	-0.015296324
130	0x3b0cad9c	0.0021465784
131	0xbbb0bbfa	-0.0053935023
132	0x3c5d414e	0.013504339
133	0x3c021851	0.007940368
134	0xbc9cc522	-0.019136969
135	0x3d0162c5	0.031588335
136	0xbcb0d7e8	-0.021587327
137	0x3b8576eb	0.004073014
138	0x3b653630	0.0034974925
139	0xbabc0f2e	-0.0014347786
140	0x3c6d3963	0.014479014
141	0x3d0e6c10	0.034771025
142	0x3d211e53	0.03933556
143	0xbc26c2ae	-0.010178251
144	0xbcf51208	-0.029915825
145	0xbcf154f4	-0.029459454
146	0xbb4cd116	-0.0031252555
147	0x3bfd23bd	0.0077252076
148	0xbbc39c51	-0.005969562
149	0x3d337594	0.043813303
150	0xbc917966	-0.017758083
151	0xb9a739a9	-0.00031895682
152	0x3c51ab43	0.01279718
153	0xbd3ce727	-0.04611888
154	0xbcb71775	-0.022350052
155	0xbd673802	-0.056449898
156	0xbc472a6f	-0.012156113
157	0xbcadc8b2	-0.021213863
158	0x3b2fcffb	0.0026826847
159	0x3b8f4d98	0.0043732636
160	0x3c1bcc2b	0.009509127
161	0xbabc6573	-0.0014373496
162	0x3a0494e2	0.00050575857
163	0x3bd205e4	0.0064093936
164	0xbd31284c	-0.04325132
165	0xbc385fbb	-0.011253293
166	0x3d8ea7cd	0.06965599
167	0xba2709d6	-0.000637201
168	0x3cd49c2a	0.025953371
169	0x3cbba9aa	0.02290805
170	0x3d05483d	0.032539595
171	0x3d315c79	0.04330108
172	0x3c9401f1	0.018067332
173	0xbdbc1caf	-0.091851585
174	0x3d083544	0.033253923
175	0xba6ec861	-0.0009108838
176	0xbd2e1c3d	-0.0425074
177	0x3d887145	0.066622294
178	0x3cbc71ee	0.023003545
179	0xbd09dc0a	-0.03365711
180	0x3d0ad75a	0.03389678
181	0x3dab9ed5	0.08379904
182	0x3cd01df6	0.025404911
183	0xbc388f35	-0.011264612
184	0x3b9f22d0	0.004856445
185	0xbccdc56d	-0.025118554
186	0xbd960c23	-0.07326534
187	0xbc5751be	-0.013142047
188	0xbcf1a9cc	-0.02949991
189	0x3c86d531	0.01645908
190	0x3c438c47	0.0119353
191	0x3c7204e5	0.014771675
192	0x3ba06c8c	0.0048957523
193	0x3d307659	0.043081615
194	0xbd069357	-0.032855358
195	0x3b3a44af	0.0028422286
196	0xbd1dc0bb	-0.03851388
197	0x3baba849	0.005238567
198	0xbcb87b19	-0.022519635
199	0x3d14104c	0.036148354
200	0xbc4781c9	-0.012176939
201	0x3b02d711	0.0019964615
202	0x3c3a8a4e	0.0113855135
203	0x3d11d629	0.03560463
204	0xbc7d53df	-0.015461891
205	0x3bdaabd7	0.006673317
206	0x3d2810c6	0.04103162
207	0xbb855922	-0.0040694633
208	0x3c31218d	0.010811222
209	0x3b0e909a	0.002175367
210	0xbca5a954	-0.020222344
211	0xbc84365e	-0.016139206
212	0xb9139790	-0.00014075474
213	0x3cdde940	0.027088761
214	0xbcc5cddf	-0.024146019
215	0xba093fc5	-0.00052356377
216	0xbba4002d	-0.005004904
217	0x3cdb444f	0.02676597
218	0x3cde3cdb	0.027128628
219	0xbc4d0e11	-0.012515561
220	0x3d9c736a	0.07639201
221	0xbbea010b	-0.0071412376
222	0xbbc1b73c	-0.005911736
223	0x3d1b45da	0.037908413
224	0xbcdaf9a3	-0.026730364
225	0xbd0e4513	-0.034733843
226	0xbd3102d5	-0.04321559
227	0x3c1a4712	0.009416359
228	0xbd3d4ff3	-0.046218824
229	0x3d45471d	0.048163522
230	0x3d13e768	0.036109358
231	0xbd1608f4	-0.036629632
232	0xbba2d29f	-0.0049689556
233	0x3c257510	0.010098711
234	0x3cfa1010	0.030525237
235	0xb9c7e93c	-0.0003813001
236	0x3c78e9d0	0.015192464
237	0xbd0de6bb	-0.03464387
238	0xbd118d11	-0.035534922
239	0xbcb137b5	-0.021633008
240	0xbce0de43	-0.027449733
241	0xbc67dbdd	-0.014151541
242	0x3c35d1a4	0.0110973455
243	0x3c8f56af	0.017497389
244	0x3d4a6507	0.049412753
245	0xbd3ee14f	-0.04660159
246	0x3c2b4232	0.010452794
247	0x3d57d03e	0.05268883
248	0xbd865ab7	-0.06560271
249	0x3d32d17a	0.043656804
250	0x3ce18df3	0.027533507
251	0xbc7a2463	-0.015267464
252	0x3d87726a	0.066136196
253	0x3c90f016	0.017692607
254	0x3ca2263a	0.019793618
255	0x3d246e0a	0.040144004

calibrate.convs.3.bias f4 [16]
0	0xbd128e74	-0.035780385
1	0x3d5cebb7	0.053935733
2	0xbbd620f4	-0.00653469
3	0xbddb242d	-0.10700259
4	0xbcd12db3	-0.025534486
5	0x3c8299e2	0.015942518
6	0x3cd9eb0e	0.02660134
7	0x3d3072f0	0.043078363
8	0xbbf37dd5	-0.007430772
9	0x3d6d590b	0.057946246
10	0x3d428a46	0.04749515
11	0x3a6426c1	0.00087032845
12	0xbc94bc9c	-0.018156342
13	0xbc15c132	-0.0091403
14	0xbdbddf8f	-0.09271156
15	0x3d6a0253	0.057131123

calibrate.convs.4.weight f4 [16]
0	0x3f5b3b2e	0.85637176
1	0x3f57d3f7	0.8430781
2	0x3f5a3e21	0.8525105
3	0x3f62b81b	0.8856217
4	0x3f498b71	0.78728396
5	0x3f6c83ae	0.9238843
6	0x3f5a22e1	0.8520947
7	0x3f4e9612	0.8069774
8	0x3f5c14bd	0.85969144
9	0x3f6ebc4d	0.93256074
10	0x3f47854d	0.77937776
11	0x3f5b8389	0.8574758
12	0x3f50513f	0.8137397
13	0x3f57c2b6	0.8428148
14	0x3f42c2f5	0.7607873
15	0x3f6a0220	0.9140949

calibrate.convs.4.bias f4 [16]
0	0xbd31aca8	-0.04337755
1	0x3d741e05	0.05959894
2	0x3d91b576	0.07114689
3	0xbddd9f41	-0.10821391
4	0xbd146cbc	-0.03623651
5	0x3d225345	0.039630193
6	0x3db10ae3	0.086446546
7	0x3d48cba5	0.049022336
8	0x3d886f2b	0.066618286
9	0x3dbc3410	0.09189618
10	0x3cabdbd2	0.020978842
11	0x3da99958	0.08281201
12	0xbcf3c9eb	-0.029759368
13	0x3d9038b1	0.07042063
14	0xbd85721d	-0.06515906
15	0x3d9cfa98	0.076649845

calibrate.convs.4.running_mean f4 [16]
0	0x3ea40563	0.3203536
1	0x3e25f240	0.16205692
2	0xbe0c2212	-0.13684872
3	0x3e81b5cd	0.25334015
4	0x3ddd1567	0.10795098
5	0x3dbfc159	0.0936305
6	0xbde4809c	-0.11157343
7	0x3dd6a703	0.10481074
8	0xbd73498b	-0.059396308
9	0xbe0e0c72	-0.13871935
10	0x3e3b9b01	0.18320848
11	0xbe35b3d2	-0.17744377
12	0x3e77937c	0.24177355
13	0xbd9e8c03	-0.07741549
14	0x3e6b1949	0.22958864
15	0xbe0302bb	-0.1279401

calibrate.convs.4.running_var f4 [16]
0	0x3ee4b66f	0.44670436
1	0x3e56b8fe	0.20969006
2	0x3e07567b	0.13216583
3	0x3e46623d	0.19373412
4	0x3e690ebe	0.2275953
5	0x3e091510	0.13386941
6	0x3ddb64d6	0.10712592
7	0x3e2b8018	0.16748083
8	0x3daf77dc	0.08567783
9	0x3e60938c	0.21931285
10	0x3e1744a1	0.14772274
11	0x3da121b4	0.078677565
12	0x3ecaece7	0.39633867
13	0x3d475514	0.04866512
14	0x3e41f0db	0.18939535
15	0x3e79e61d	0.24404188

calibrate.blocks.0.0.weight f4 [16, 16, 3, 3]
0	0xbd1d7315	-0.03843983
1	0x3b971e56	0.0046117706
2	0xba9af159	-0.0011821195
3	0xbd496073	-0.049164247
4	0xbca471a6	-0.020073723
5	0xbcab360d	-0.020899797
6	0xbbfa8b94	-0.0076460335
7	0xbc6ac663	-0.014329526
8	0xbcbbcea3	-0.02292568
9	0x3c4578bc	0.012052711
10	0x3ac08497	0.0014687952
11	0xbda4df2b	-0.080503784
12	0x3d3fe132	0.046845622
13	0xbbf5ddc8	-0.007503245
14	0xbd823210	-0.06357205
15	0x3c240287	0.010010368
16	0x3cb13f6c	0.021636687
17	0x3cfc59bd	0.03080451
18	0xbd06a30a	-0.03287033
19	0x3ab2e1b0	0.0013647582
20	0xbd292222	-0.041292317
21	0x3cb50d54	0.022101082
22	0xbd27fea7	-0.04101434
23	0x3cfe73c3	0.031061059
24	0xbbae8f98	-0.0053271763
25	0x3c977a69	0.018490987
26	0x3c7a71fc	0.015285965
27	0xbc328447	-0.010895795
28	0xb8e28373	-0.00010801004
29	0x3c31a3df	0.010842293
30	0xbdb6aee9	-0.0892008
31	0xbc1eefe6	-0.009700751
32	0xbc5560a5	-0.01302353
33	0x3c09dd28	0.008414544
34	0x3c0d57b0	0.008626863
35	0xbb984ad2	-0.004647591
36	0x3c14b2c4	0.009075824
37	0x3c38c6c7	0.011277861
38	0x3c98ca6e	0.018651213
39	0x3d1249df	0.03571498
40	0x3c937720	0.01800114
41	0x3d448e25	0.047987122
42	0x3c992ab8	0.018697128
43	0xbcff206b	-0.031143388
44	0xbd8594e8	-0.06522542
45	0xbc0d6f30	-0.008632466
46	0x3c75f974	0.015013088
47	0xbd2b2da4	-0.041791573
48	0xbb106c99	-0.0022037385
49	0xbbe0e1b2	-0.0068628425
50	0x3c8ca992	0.017170701
51	0xba4c1539	-0.0007785145
52	0x3c7a184e	0.015264584
53	0x3d477efa	0.04870508
54	0xbc3d43ba	-0.011551792
55	0x369db2e9	4.6997925e-06
56	0xbbb4d571	-0.0055186083
57	0xbd19fcb2	-0.037594505
58	0xba6f9b88	-0.00091403024
59	0xbd224d32	-0.0396244
60	0xbc4a3350	-0.012341335
61	0xbbcf4ec7	-0.0063265297
62	0xbc14c8ac	-0.009081047
63	0xbc76ef71	-0.015071736
64	0x3d44cd88	0.048047572
65	0xbaf33d3a	-0.0018557676
66	0xbd9acaa4	-0.07558182
67	0xbc0db572	-0.008649217
68	0x3c4cb684	0.012494687
69	0xbd35e5f1	-0.044408742
70	0x3d1b15a6	0.037862442
71	0x3c9b3116	0.018944304
72	0xbd0ecf21	-0.034865502
73	0x3d30671b	0.04306708
74	0xbbd9a2ab	-0.006641706
75	0xbd3f8971	-0.046761934
76	0xbb40d0db	-0.0029421363
77	0xbcb9692d	-0.02263316
78	0x3c023880	0.007948041
79	0xbce80d7d	-0.028326744
80	0xbc819881	-0.01581979
81	0xbd0fbdb8	-0.03509304
82	0xbcd3b2bd	-0.025842065
83	0xbd0afc97	-0.033932295
84	0x3ca0bdbc	0.019621722
85	0xbc8180eb	-0.015808543
86	0x3cf10d56	0.029425304
87	0xbd10cfba	-0.035354353
88	0x3c766fa9	0.01504127
89	0xbc04775a	-0.008085096
90	0x3c4bbab1	0.012434647
91	0x3c50b057	0.012737355
92	0xbce6f1aa	-0.028191406
93	0x3cf5628a	0.029954214
94	0x3d0b3015	0.0339814
95	0xbc2cbb63	-0.010542723
96	0x3b4122ad	0.0029470131
97	0xbcde178f	-0.027110843
98	0xbd37806d	-0.04480021
99	0xbc0049d8	-0.007830106
100	0x3c1bad12	0.009501712
101	0x3d0bb015	0.03410347
102	0xbc8c38ed	-0.017116988
103	0x3b8dabf2	0.004323476
104	0x3d692351	0.056918446
105	0x3c24458c	0.010026347
106	0x3cdd0a17	0.02698235
107	0x3d6d5008	0.057937652
108	0x3b90f04f	0.0044231783
109	0xbd341d57	-0.043973293
110	0x3d160bff	0.036632534
111	0x3bcff6bf	0.006346553
112	0x3d45c67b	0.04828499
113	0xbcb4c4af	-0.022066442
114	0x3d549527	0.051900055
115	0x3d6af501	0.05736256
116	0xbc2021bd	-0.009773669
117	0xbc295739	-0.010335737
118	0x3c83346c	0.016016208
119	0xbd40e614	-0.04709442
120	0xbbc5e908	-0.0060397424
121	0xbbb5314b	-0.005529558
122	0xbc40cd87	-0.011767752
123	0xbbbd365d	-0.005774303
124	0xbcb22482	-0.021745924
125	0x3b13a237	0.0022527108
126	0x3cebb275	0.028771618
127	0xbc0d5477	-0.008626095
128	0xbd138105	-0.036011714
129	0xbc0a125a	-0.008427227
130	0x3b85879f	0.004075005
131	0xbd32fc6a	-0.043697752
132	0xbc0de287	-0.008659965
133	0xbd58979b	-0.052878957
134	0xbd760ca9	-0.060070667
135	0xbca7b409	-0.02047159
136	0x3d5baff4	0.0536346
137	0x3d55b6da	0.052176334
138	0x3cdc65c7	0.026904
139	0xbdc5448f	-0.09632217
140	0xbd4315f5	-0.04762836
141	0xbd003763	-0.03130282
142	0xbcb46f8c	-0.022025846
143	0xbc827bc7	-0.015928162
144	0x3c8dc03a	0.017303575
145	0x3c6b04c3	0.014344397
146	0xbc54d5d5	-0.012990435
147	0xbc7613a7	-0.015019334
148	0xbcbbf4cf	-0.022943882
149	0x3c100b98	0.008791827
150	0xbc9dd3b8	-0.019265994
151	0x3c2a080d	0.010377896
152	0xbd2016ac	-0.03908412
153	0x3c9bb9ed	0.019009555
154	0xbc77ec3c	-0.015132006
155	0x3ccbf9b7	0.024899347
156	0xbb93d420	-0.0045113713
157	0x3d614dd6	0.05500587
158	0xbcc99e92	-0.024611745
159	0xbcdbd5a1	-0.026835265
160	0xbc00eeb5	-0.007869412
161	0xbc887391	-0.016656669
162	0x3bcac1dd	0.006187661
163	0xbc9e546e	-0.019327369
164	0x3b9c46a4	0.004769163
165	0x3cb32dfd	0.021872515
166	0x3d08cdf5	0.03339954
167	0x3c699043	0.014255586
168	0x3d6fcc24	0.058544293
169	0x3d6bf7e9	0.057609472
170	0x3c35a8f1	0.011087642
171	0xbc34df55	-0.011039575
172	0x3b785e82	0.0037898128
173	0xbc5f1932	-0.013616847
174	0xbcc1e7b1	-0.02367005
175	0xbba9abff	-0.0051779742
176	0x3c750bd9	0.014956438
177	0x3ca27520	0.01983124
178	0x3cdda094	0.027054109
179	0x3af3e81b	0.0018608602
180	0x3c838157	0.016052885
181	0xbc63774a	-0.013883421
182	0x3d0e0237	0.03467008
183	0x3c52f674	0.012876142
184	0x3c854502	0.016268257
185	0x3d03fc11	0.03222281
186	0xbc55ed8c	-0.013057124
187	0xbcfbdcf0	-0.030745
188	0xbd2d0d2a	-0.042248882
189	0x3b84f1bb	0.004057137
190	0xbce7378a	-0.028224725
191	0x3bd76b41	0.006574065
192	0x3caa9f0a	0.020827789
193	0xbd3886ce	-0.045050435
194	0x3c09aad4	0.008402545
195	0xbc55351f	-0.013013153
196	0x3d4296bd	0.047507036
197	0x3b9081f5	0.0044100233
198	0x3bb61c31	0.00555756
199	0xbd33710d	-0.043808986
200	0x3cb112f9	0.021615492
201	0x3cfa57f4	0.030559517
202	0xbca28324	-0.019837923
203	0x3d5adaae	0.053431205
204	0x3cb53e90	0.022124559
205	0x3be25e2e	0.0069081997
206	0xbc9dc78e	-0.019260194
207	0xba54ece2	-0.00081224565
208	0x3a93053a	0.0011216768
209	0xbb2ab327	-0.0026046725
210	0x3cfb6812	0.030689273
211	0xbd6c6246	-0.05771091
212	0xbbf34122	-0.007423536
213	0x3da614d0	0.081094384
214	0xbbae52e6	-0.005319941
215	0xbcaa0c6c	-0.020757876
216	0xbcf27eb2	-0.029601429
217	0xbb31bb39	-0.002711965
218	0xbb6cbbe0	-0.0036122724
219	0xbd090576	-0.033452474
220	0x3c560d26	0.013064658
221	0xbab63962	-0.00139026
222	0xbd02c04a	-0.031921662
223	0xbccb0dc6	-0.024786841
224	0xbc8888f0	-0.01666686
225	0x3cf40673	0.029788231
226	0x3d048368	0.03235188
227	0xbca7d787	-0.020488514
228	0x3d312c8f	0.043255385
229	0x3b2400ef	0.002502497
230	0x3bf21243	0.007387431
231	0x3c4c49ef	0.012468799
232	0x3d07daa3	0.033167493
233	0x3cfdbbe4	0.030973382
234	0xbb036098	-0.0020046588
235	0x3a10fd24	0.0005530885
236	0xbb7c1f71	-0.003847089
237	0x3ab71800	0.0013968945
238	0x3d3c9f52	0.046050377
239	0xbcd5ceaf	-0.026099531
240	0x3cb43a31	0.022000404
241	0x3c20bf15	0.0098111825
242	0xbd01d465	-0.031696696
243	0x3badca66	0.005303669
244	0xba8541ae	-0.0010166669
245	0x3b8400e0	0.0040284246
246	0xbc90c783	-0.01767326
247	0xbcbc338a	-0.022973794
248	0x3bc8da1d	0.0061295168
249	0x3b156d8d	0.0022800893
250	0x3d2355a2	0.039876588
251	0x3c6de50e	0.014519943
252	0xbb6e1b88	-0.0036332328
253	0x3bfdc11e	0.0077439686
254	0xbd092aee	-0.033488207
255	0x3ae8348b	0.0017715854

calibrate.blocks.0.0.bias f4 [16]
0	0x3cf944f9	0.030428397
1	0xbd0baaed	-0.034098554
2	0x3cb36222	0.02189738
3	0xbd73a6ae	-0.05948513
4	0xbcffc80d	-0.031223321
5	0xbd88b02b	-0.066742264
6	0x3c42fed4	0.011901576
7	0xbd8a294d	-0.06746159
8	0xbc573e02	-0.013137342
9	0x3ce05b27	0.027387215
10	0x3d07e28f	0.033175047
11	0xbcdab350	-0.026696831
12	0x3da4e37e	0.08051203
13	0xbcdd606b	-0.027023515
14	0xbd396943	-0.0452664
15	0xbd7d0afb	-0.06177805

calibrate.blocks.0.1.weight f4 [16]
0	0x3f509bbd	0.8148764
1	0x3f4b619e	0.79445827
2	0x3f3030d1	0.6882449
3	0x3f4c6f6a	0.79857504
4	0x3f2cd9bc	0.67519736
5	0x3f60505f	0.87622637
6	0x3f428dc2	0.75997555
7	0x3f609176	0.87721956
8	0x3f2ec9d1	0.682767
9	0x3f2c67a1	0.67345625
10	0x3f4b9ff2	0.7954093
11	0x3f387f8d	0.7206963
12	0x3f6803ff	0.906311
13	0x3f3edb58	0.7455344
14	0x3f64c5d9	0.8936439
15	0x3f4e879a	0.8067566

calibrate.blocks.0.1.bias f4 [16]
0	0x3d83b814	0.064315945
1	0xbca91f8d	-0.020644927
2	0x3d85ce07	0.06533437
3	0xbd7d1921	-0.061791543
4	0xbce3554f	-0.02775064
5	0xbd527e42	-0.05138994
6	0x3da3fda5	0.08007363
7	0xbda51447	-0.08060508
8	0xbbd97ee9	-0.0066374433
9	0x3cd0ef08	0.025504604
10	0x3d2d3dbc	0.042295203
11	0x3c0f2e72	0.008739101
12	0x3d9d2b07	0.076742224
13	0xbc8cfb68	-0.017209724
14	0x3bd27a8b	0.0064232997
15	0xbd1b7eea	-0.03796283

calibrate.blocks.0.1.running_mean f4 [16]
0	0xbed0a3d2	-0.40749985
1	0x3e57033d	0.20997329
2	0xbe56a1fc	-0.2096023
3	0x3f1641ac	0.5869396
4	0x3e24e3f1	0.16102578
5	0x3e9cd762	0.30633074
6	0xbf038eb8	-0.51389647
7	0x3f1e5021	0.61841017
8	0x3da5c247	0.08093696
9	0x3db30c1e	0.087425455
10	0xbe7bcfc9	-0.24590982
11	0x3ebacc3d	0.36483946
12	0xbf3045f5	-0.68856746
13	0x3e190569	0.1494347
14	0xbe1bcd41	-0.15215017
15	0x3ecc9e58	0.39964557

calibrate.blocks.0.1.running_var f4 [16]
0	0x3e8a077e	0.2695884
1	0x3e6d892d	0.2319686
2	0x3eb0223a	0.34401113
3	0x3e4d0307	0.20020686
4	0x3f22a398	0.63530874
5	0x3f14d391	0.58135325
6	0x3f10291b	0.5631272
7	0x3eb087b1	0.34478524
8	0x3fb251ea	1.3931248
9	0x3e39caf9	0.18143834
10	0x3dfc4ec5	0.123197116
11	0x3e6906a0	0.22756433
12	0x3eee5685	0.46550384
13	0x3f52443c	0.8213537
14	0x3dec50ad	0.11538825
15	0x3d8b4267	0.067997746
