SCI/weights/easy.pt (torch, 43967 bytes, 72 tensors)

enhance.in_conv.0.weight f4 [3, 3, 3, 3]
0.02420901 -0.005113926 0.00031493665 -0.02012526 0.046395507 0.005009673 0.02722632 -0.013109657
-0.01209985 0.015120247 0.022245746 -0.007340671 -0.0012679937 0.06459545 -0.008790108 -0.00363364
0.01629156 -0.012621656 -0.038769733 0.014254751 0.01173952 0.038206972 0.05193868 0.035169084
0.037916034 0.008792545 -0.036789037 -0.0072962944 -0.022832 0.027741896 0.017366266 0.06874935
-0.055330187 0.0026002633 -0.017731788 0.011713098 -0.028132122 -0.01922519 0.01057811 0.017356306
0.101530135 -0.050725553 0.001722855 -0.009843242 0.008240539 -0.00895744 -0.027596146 -0.015463535
0.021850908 0.10706862 -0.024432277 0.008259076 0.040689167 0.030587757 0.029366449 -0.003266841
0.014316061 -0.029162478 -0.0734377 -0.012748475 0.022611644 -0.06362283 0.019577447 0.021226024
0.028497543 0.0023371228 -0.018250907 -0.07461509 0.00031997391 0.0086002955 -0.013312934 0.0022998764
-0.012761996 0.024558036 -0.01716446 0.040412884 0.031610068 0.04960891 0.015109298 0.05002993
0.051694743
00000000: f951 c63c b892 a7bb 151e a539 bbdd a4bc
00000010: 3709 3e3d 2f28 a43b bb09 df3c e3c9 56bc
00000020: 733e 46bc eaba 773c b63c b63c 038a f0bb
00000030: cf32 a6ba 9f4a 843d 6304 10bc 5d22 6ebb
00000040: e175 853c 10cb 4ebc 03cd 1ebd c28c 693c
00000050: 1e57 403c ea7e 1c3d a7bd 543d 750d 103d
00000060: d84d 1b3d 9b0e 103c 1ab0 16bd c115 efbb
00000070: 2d0a bbbc f942 e33c b343 8e3c 76cc 8c3d
00000080: e8a1 62bd 2e69 2a3b 4142 91bc 4be8 3f3c
00000090: 5675 e6bc 257e 9dbc cf4f 2d3c d02e 8e3c
000000a0: 08ef cf3d 99c5 4fbd 6cd1 e13a 8d45 21bc
000000b0: 5303 073c 3ac2 12bc 5011 e2bc c45a 7dbc
000000c0: ad00 b33c cb46 db3d 3326 c8bc 1351 073c
000000d0: afa9 263d 2d93 fa3c e891 f03c 7f18 56bb
000000e0: e98d 6a3c 26e6 eebc 8166 96bd fbde 50bc
000000f0: 0e3c b93c b04c 82bd e260 a03c 33e2 ad3c
00000100: ae73 e93c 6a2a 193b ed82 95bc cccf 98bd
00000110: 2cc2 a739 41e8 0c3c 7e1e 5abc 86b9 163b
00000120: b117 51bc ef2d c93c 7b9c 8cbc fb87 253d
00000130: 8f79 013d b632 4b3d fd8c 773c 2fec 4c3d
00000140: debd 533d

enhance.in_conv.0.bias f4 [3]
0.033762142 0.02688871 0.034114517
00000000: 2c4a 0a3d b645 dc3c aabb 0b3d

enhance.conv.0.weight f4 [3, 3, 3, 3]
-0.042108152 -0.023332493 -0.010182074 -0.006487025 0.008360943 0.034750517 0.0061989916 0.009497743
0.012961737 0.054312926 -0.056850087 0.0025456038 0.021181528 0.02156821 0.054609243 -0.002284245
-0.050013095 0.014703959 0.06350249 0.09584843 0.021741964 0.042009078 0.05557448 -0.052307054
-0.017394802 0.036080632 0.016687363 -0.014702022 0.041090216 -0.009660812 0.021094367 0.04993559
0.05451797 0.015338592 0.03211248 -0.011364249 -0.0506906 0.052593537 0.008673016 0.006266318
-0.004903975 0.06393677 -0.033017762 -0.0014888756 0.002048537 -0.029212425 -0.056218263 0.023834571
0.01087171 0.0589399 -0.035484184 -0.004161669 0.027739976 0.018489333 -0.0022581357 -0.028403357
0.012167989 -0.0067953262 -0.01878481 0.013954163 0.015495444 -0.0164484 -0.022404782 0.0486017
-0.06116583 0.00582561 0.03147772 -0.08303724 0.012498479 -0.0024335203 0.069727205 -0.018335953
0.051962998 0.060051724 0.0037976715 0.040504757 -0.046299733 0.018872906 0.0036059234 -0.027622165
0.0059296587
00000000: 9979 2cbd c923 bfbc b7d2 26bc 1c91 d4bb
00000010: 56fc 083c 8f56 0e3d e920 cb3b 6c9c 1b3c
00000020: 775d 543c 3b77 5e3d a3db 68bd 25d4 263b
00000030: e284 ad3c d1af b03c f1ad 5f3d 46b3 15bb
00000040: 88da 4cbd e0e8 703c 980d 823d 2f4c c43d
00000050: 341c b23c b611 2c3d 11a2 633d ec3f 56bd
00000060: 8b7f 8ebc 49c9 133d f0b3 883c c0e0 70bc
00000070: 374e 283d 6248 1ebc 18ce ac3c 4389 4c3d
00000080: 3c4e 5f3d b84e 7b3c 6088 033d 1d31 3abc
00000090: f2a0 4fbd 526c 573d 4419 0e3c af55 cd3b
000000a0: 86b1 a0bb 48f1 823d a23d 07bd 6026 c3ba
000000b0: bf40 063b e54e efbc 1f45 66bd b840 c33c
000000c0: 421f 323c f76a 713d dd57 11bd 9c5e 88bb
000000d0: f23e e33c f176 973c 3bfd 13bb 28ae e8bc
000000e0: 3f5c 473c 54ab debb 9ae2 99bc 00a0 643c
000000f0: 9ae0 7d3c ccbe 86bc 3c8a b7bc 9412 473d
00000100: 0589 7abd c2e4 be3b c8ee 003d 6e0f aabd
00000110: 6cc6 4c3c b27b 1fbb 23cd 8e3d 4835 96bc
00000120: 27d7 543d ccf8 753d 5be2 783b 51e8 253d
00000130: caa4 3dbd 5a9b 9a3c 5b51 6c3b e147 e2bc
00000140: 954d c23b

enhance.conv.0.bias f4 [3]
-0.001771438 0.018342214 -0.003145284
00000000: 992f e8ba 6942 963c 1c21 4ebb

enhance.conv.1.weight f4 [3]
1.0408572 1.0865405 1.088541
00000000: cf3a 853f c213 8b3f 5055 8b3f

enhance.conv.1.bias f4 [3]
0.11544946 0.10744708 -0.02594849
00000000: c470 ec3d 370d dc3d ed91 d4bc

enhance.conv.1.running_mean f4 [3]
0.0011327878 0.013720534 -0.016474966
00000000: 0d7a 943a 17cc 603c 82f6 86bc

enhance.conv.1.running_var f4 [3]
2.3607217e-06 2.581595e-05 1.8353561e-05
00000000: e46c 1e36 558f d837 f9f5 9937

enhance.blocks.0.0.weight f4 [3, 3, 3, 3]
-0.042108152 -0.023332493 -0.010182074 -0.006487025 0.008360943 0.034750517 0.0061989916 0.009497743
0.012961737 0.054312926 -0.056850087 0.0025456038 0.021181528 0.02156821 0.054609243 -0.002284245
-0.050013095 0.014703959 0.06350249 0.09584843 0.021741964 0.042009078 0.05557448 -0.052307054
-0.017394802 0.036080632 0.016687363 -0.014702022 0.041090216 -0.009660812 0.021094367 0.04993559
0.05451797 0.015338592 0.03211248 -0.011364249 -0.0506906 0.052593537 0.008673016 0.006266318
-0.004903975 0.06393677 -0.033017762 -0.0014888756 0.002048537 -0.029212425 -0.056218263 0.023834571
0.01087171 0.0589399 -0.035484184 -0.004161669 0.027739976 0.018489333 -0.0022581357 -0.028403357
0.012167989 -0.0067953262 -0.01878481 0.013954163 0.015495444 -0.0164484 -0.022404782 0.0486017
-0.06116583 0.00582561 0.03147772 -0.08303724 0.012498479 -0.0024335203 0.069727205 -0.018335953
0.051962998 0.060051724 0.0037976715 0.040504757 -0.046299733 0.018872906 0.0036059234 -0.027622165
0.0059296587
00000000: 9979 2cbd c923 bfbc b7d2 26bc 1c91 d4bb
00000010: 56fc 083c 8f56 0e3d e920 cb3b 6c9c 1b3c
00000020: 775d 543c 3b77 5e3d a3db 68bd 25d4 263b
00000030: e284 ad3c d1af b03c f1ad 5f3d 46b3 15bb
00000040: 88da 4cbd e0e8 703c 980d 823d 2f4c c43d
00000050: 341c b23c b611 2c3d 11a2 633d ec3f 56bd
00000060: 8b7f 8ebc 49c9 133d f0b3 883c c0e0 70bc
00000070: 374e 283d 6248 1ebc 18ce ac3c 4389 4c3d
00000080: 3c4e 5f3d b84e 7b3c 6088 033d 1d31 3abc
00000090: f2a0 4fbd 526c 573d 4419 0e3c af55 cd3b
000000a0: 86b1 a0bb 48f1 823d a23d 07bd 6026 c3ba
000000b0: bf40 063b e54e efbc 1f45 66bd b840 c33c
000000c0: 421f 323c f76a 713d dd57 11bd 9c5e 88bb
000000d0: f23e e33c f176 973c 3bfd 13bb 28ae e8bc
000000e0: 3f5c 473c 54ab debb 9ae2 99bc 00a0 643c
000000f0: 9ae0 7d3c ccbe 86bc 3c8a b7bc 9412 473d
00000100: 0589 7abd c2e4 be3b c8ee 003d 6e0f aabd
00000110: 6cc6 4c3c b27b 1fbb 23cd 8e3d 4835 96bc
00000120: 27d7 543d ccf8 753d 5be2 783b 51e8 253d
00000130: caa4 3dbd 5a9b 9a3c 5b51 6c3b e147 e2bc
00000140: 954d c23b

enhance.blocks.0.0.bias f4 [3]
-0.001771438 0.018342214 -0.003145284
00000000: 992f e8ba 6942 963c 1c21 4ebb

enhance.blocks.0.1.weight f4 [3]
1.0408572 1.0865405 1.088541
00000000: cf3a 853f c213 8b3f 5055 8b3f

enhance.blocks.0.1.bias f4 [3]
0.11544946 0.10744708 -0.02594849
00000000: c470 ec3d 370d dc3d ed91 d4bc

enhance.blocks.0.1.running_mean f4 [3]
0.0011327878 0.013720534 -0.016474966
00000000: 0d7a 943a 17cc 603c 82f6 86bc

enhance.blocks.0.1.running_var f4 [3]
2.3607217e-06 2.581595e-05 1.8353561e-05
00000000: e46c 1e36 558f d837 f9f5 9937

enhance.out_conv.0.weight f4 [3, 3, 3, 3]
-0.06825324 0.062466662 -0.008921285 -0.053256012 0.009980787 0.012611637 0.019668896 0.09165924
0.049613535 -0.03254044 -0.01789186 -0.017110692 -0.07377992 -0.04530567 -0.055172548 -0.024780571
-0.114228524 -0.08371831 0.093390465 -0.05780943 0.002177511 -0.020709472 0.08530793 0.043199465
0.014399676 0.076318234 0.041889668 -0.05172884 0.024832457 -0.00582032 -0.062386766 -0.024299555
-0.0039533055 0.0055400953 0.08571695 0.029901356 -0.024939211 -0.025296006 -0.0092832 -0.076167144
-0.051452108 -0.03342553 -0.0012233984 -0.10556206 -0.03724846 0.07253661 -0.016920421 0.0022309984
0.0033555783 0.08752934 0.02464681 0.0016997334 0.081703626 0.008510567 -0.041205622 -0.026823329
-0.002605604 -0.08004833 -0.07183942 -0.03428902 -0.0063851206 0.064176805 -0.006033292 0.0043784976
-0.056191973 0.004542684 -0.06633872 -0.09118086 0.02100878 0.013780217 -0.08084696 0.04926397
0.09112719 0.013211557 0.018369913 0.018020514 0.07605889 0.00593174 0.0078020026 0.053642765
-0.0101154065
00000000: 5bc8 8bbd 0bdd 7f3d 952a 12bc fa22 5abd
00000010: 7486 233c 0aa1 4e3c aa20 a13c d7b7 bb3d
00000020: 9037 4b3d 2049 05bd f391 92bc b92b 8cbc
00000030: ed19 97bd 7092 39bd 9cfc 61bd a000 cbbc
00000040: a5f0 e9bd 8174 abbd 8043 bf3d 95c9 6cbd
00000050: 93b4 0e3b e9a6 a9bc edb5 ae3d ecf1 303d
00000060: 9eec 6b3c bc4c 9c3d 8094 2b3d 9fe1 53bd
00000070: 706d cb3c 62b8 bebb 4489 7fbd dc0f c7bc
00000080: bb8a 81bb b089 b53b 5e8c af3d b0f3 f43c
00000090: 514d ccbc 9239 cfbc 9018 18bc 85fd 9bbd
000000a0: 72bf 52bd 35e9 08bd 705a a0ba ec30 d8bd
000000b0: d791 18bd 138e 943d b29c 8abc f135 123b
000000c0: 43e9 5b3b 9542 b33d 1be8 c93c 97c9 de3a
000000d0: 3b54 a73d e86f 0b3c 3ac7 28bd 99bc dbbc
000000e0: c8c2 2abb 61f0 a3bd 8c20 93bd a572 0cbd
000000f0: 463a d1bb 216f 833d ecb2 c5bb 8079 8f3b
00000100: 8e29 66bd ccda 943b 98dc 87bd 08bd babd
00000110: 9b1a ac3c 6bc6 613c 1793 a5bd 04c9 493d
00000120: e4a0 ba3d 4975 583c 807c 963c c29f 933c
00000130: c3c4 9b3d 0b5f c23b f1a7 ff3b 84b8 5b3d
00000140: 17bb 25bc

enhance.out_conv.0.bias f4 [3]
-0.10373903 -0.1190009 -0.113608904
00000000: 2175 d4bd beb6 f3bd c9ab e8bd

calibrate.in_conv.0.weight f4 [16, 3, 3, 3]
0.020568931 -0.015364632 -0.023187583 -0.0012698816 -0.013771174 0.00946996 -0.008280915 0.0048193056
0.005232307 -0.022676867 -0.0104564335 0.041821264 0.029084373 0.007134265 0.028007437 0.015082548
0.010276638 0.0135633275 0.027287656 0.013064928 -0.028897906 -0.04818445 0.0069255177 -0.0025155614
0.011000785 -0.025592206 -0.021891056 0.009466152 0.025066433 0.045125738 0.007884059 -0.0065109115
0.008059641 -0.022636203 0.003694801 -0.0038237683 -0.021430759 0.031823307 -0.019948868 -0.0407395
0.0008114045 0.014107588 -0.017142102 0.016791001 -0.03774582 -0.0050815293 -0.038697753 -0.025254462
0.02742685 0.009302165 -0.020243572 0.05764427 -0.019841922 0.02891323 0.01637772 -0.011860469
-0.05281915 0.009684464 -0.054787744 -0.04431869 -0.02377624 -0.02530244 -0.012976908 -0.0059225108
0.033093736 0.026528386 0.015223248 -0.011709827 -0.014020772 0.01437266 0.0057235267 0.015519784
0.0051518343 -0.035186112 0.01847723 -0.048124373 0.014979829 0.01824906 0.029973155 0.005547421
-0.013643976 -0.013148242 -0.027427934 -0.041819364 -0.03580831 0.013363775 0.043054823 0.025712036
-0.004053407 0.010198316 0.03364317 -0.031243745 0.02167976 -0.003576183 0.02327925 0.013423772
-0.028127823 0.010767782 -0.00032666163 0.033297602 0.06174103 0.007088142 0.06496953 -0.017230371
-0.014823934 -0.017641235 0.01162784 -0.029840698 0.060828578 0.0050363997 0.0040470767 -0.02730459
0.0030536589 -0.0058042263 -0.005244065 0.002987892 -0.0036321299 0.00075137615 0.053276103 0.012209057
-0.009662411 0.04135853 -0.0070264046 0.031457268 -0.013882064 -0.00043528702 0.038585696 0.03330999
0.007884735 -0.009463686 -0.0073893876 -0.014788464 -0.0012337574 -0.0031766419 0.0068778466 0.013474851
-0.034016542 0.0101622585 -0.006595164 -0.00052253465 -0.007241077 -0.010178844 0.021460524 0.013350176
0.023166858 -0.04928764 -0.01228052 0.011924933 0.05042354 -0.026317582 0.010183919 0.0040142587
-0.0077904696 -0.008217537 0.0381223 0.018052788 -0.041165054 -0.01614329 0.013998684 0.02362214
-0.042081557 0.011350578 0.021007214 0.0032712978 -0.010405885 0.002237404 -0.034248438 -0.013078887
-0.013455266 0.036970183 -0.02359256 -0.03200244 -0.0025639166 0.051653236 -0.00031806677 0.0008356635
-0.007529196 0.0059696343 -0.017356252 0.037338294 0.029877177 -0.01908939 -0.0038324767 0.019727845
-0.036702555 -6.260689e-05 -0.010217253 -0.012022196 -0.0025931709 0.023237832 -0.015490553 -0.08394958
0.018573018 0.056610726 -0.014540636 0.022703342 -0.028198425 0.018727556 -0.011603823 0.020853737
0.06101952 -0.035214767 -0.03290842 -0.027904948 -0.0076674125 0.017371848 -0.02913002 -0.008784251
-0.030551985 0.029700601 -0.007037623 -0.0019948133 0.04427864 -0.0005800163 0.0026290535 0.0044367
-0.01966509 -0.002191913 0.025300404 -0.020135444 0.011772623 0.024787113 0.021008473 0.013315563
0.03837006 0.005141551 0.0063112946 -0.011199912 0.0057969824 -0.0034410178 -0.027387328 -0.00061483146
-0.038537193 -0.035658304 0.012422286 0.008548306 -0.016481267 0.012415175 0.007718402 0.01983864
-0.004183356 -0.02950084 0.011851794 -0.015406837 0.022662174 -0.0043672784 0.0060498854 -0.031886153
0.012556354 0.006048279 -0.015581291 -0.00062553375 -0.0051441817 -0.027672082 0.026220813 0.005784324
00000000: 2d80 a83c f0bb 7bbc e3f3 bdbc 2872 a6ba
00000010: 7da0 61bc e427 1b3c adac 07bc 44eb 9d3b
00000020: c673 ab3b d6c4 b9bc 7651 2bbc c64c 2b3d
00000030: 5a42 ee3c 8dc6 e93b da6f e53c cb1c 773c
00000040: 585f 283c b838 5e3c 5d8a df3c 480e 563c
00000050: 4dbb ecbc 0f5d 45bd 74ef e23b 1edc 24bb
00000060: a33c 343c bfa6 d1bc df54 b3bc eb17 1b3c
00000070: 1f58 cd3c c4d5 383d 242c 013c 7c59 d5bb
00000080: 960c 043c 8f6f b9bc 7924 723b 3098 7abb
00000090: 8f8f afbc 2859 023d cf6b a3bc 76de 26bd
000000a0: 6fb4 543a 8323 673c 986d 8cbc 488d 893c
000000b0: 5c9b 1abd f582 a6bb 8981 1ebd 72e2 cebc
000000c0: 46ae e03c 1c68 183c d9d5 a5bc 661c 6c3d
000000d0: 878b a2bc 70db ec3c 912a 863c 6a52 42bc
000000e0: e558 58bd 96ab 1e3c 1d69 60bd 8487 35bd
000000f0: 64c6 c2bc 1047 cfbc 199d 54bc 9f11 c2bb
00000100: 4c8d 073d 0f52 d93c ee6a 793c 93da 3fbc
00000110: 61b7 65bc 4e7b 6b3c 6c8c bb3b b146 7e3c
00000120: b8d0 a83b 501f 10bd 8f5d 973c 101e 45bd
00000130: f56d 753c 0d7f 953c 438a f53c 24c7 b53b
00000140: fc8a 5fbc b96b 57bc 8cb0 e0bc c84a 2bbd
00000150: bcab 12bd bcf3 5a3c 415a 303d 0ca2 d23c
00000160: 71d2 84bb d616 273c 6ccd 093d e2f2 ffbc
00000170: c199 b13c 655e 6abb 20b4 be3c 61ef 5b3c
00000180: 526c e6bc 5a6b 303c c843 abb9 1163 083d
00000190: 2ae4 7c3d a543 e83b bf0e 853d b526 8dbc
000001a0: 16e0 72bc 5a84 90bc b282 3e3c 7b74 f4bc
000001b0: 6327 793d 6208 a53b 579d 843b e0ad dfbc
000001c0: e51f 483b 6131 bebb 68d6 abbb 82d0 433b
000001d0: 0709 6ebb 00f8 443a 0b38 5a3d 7f08 483c
000001e0: 174f 1ebc 9067 293d c13d e6bb 56d9 003d
000001f0: 9971 63bc 3c37 e4b9 090c 1e3d 0e70 083d
00000200: fa2e 013c 930d 1bbc ad22 f2bb 504b 72bc
00000210: 07b6 a1ba 352f 50bb 8f5f e13b 9fc5 5c3c
00000220: ee54 0bbd 9a7f 263c 3f1c d8bb b5fa 08ba
00000230: 8e46 edbb 2bc5 26bc fbcd af3c b2ba 5a3c
00000240: 6cc8 bd3c d6e1 49bd 3c34 49bc cb60 433c
00000250: ea88 4e3d f897 d7bc 74da 263c 0b8a 833b
00000260: 3247 ffbb d9a2 06bc 2126 1c3d 71e3 933c
00000270: b09c 28bd ef3e 84bc bc5a 653c 3883 c13c
00000280: b65d 2cbd c6f7 393c 5217 ac3c 4563 563b
00000290: 727d 2abc 69a1 123b 1748 0cbd d448 56bc
000002a0: 7a73 5cbc 0c6e 173d 2f45 c1bc fe14 03bd
000002b0: 6207 28bb 5892 533d 33c2 a6b9 6e10 5b3a
000002c0: 79b7 f6bb ec9c c33b b32e 8ebc 0af0 183d
000002d0: fbc0 f43c 5a61 9cbc 4a2a 7bbb 4a9c a13c
000002e0: 6b55 16bd d14b 83b8 4466 27bc bff8 44bc
000002f0: 30f2 29bb 445d be3c 17cc 7dbc c2ed abbd
00000300: 7126 983c a6e0 673d d93b 6ebc 5cfc b93c
00000310: 6200 e7bc 886a 993c f61d 3ebc 75d5 aa3c
00000320: 9bef 793d 5c3d 10bd fbca 06bd eb98 e4bc
00000330: eb3e fbbb 684f 8e3c 14a2 eebc d2eb 0fbc
00000340: 2848 fabc ad4e f33c dc9b e6bb 6abb 02bb
00000350: 855d 353d 3c0c 18ba 334c 2c3b bd61 913b
00000360: af18 a1bc 33a6 0fbb cb42 cf3c 16f3 a4bc
00000370: f6e1 403c 580e cb3c f619 ac3c 8529 5a3c
00000380: ed29 1d3d 757a a83b face ce3b d67f 37bc
00000390: 9df4 bd3b b382 61bb 645b e0bc a42c 21ba
000003a0: 2dd9 1dbd 710e 12bd d886 4b3c 320e 0c3c
000003b0: b903 87bc 0569 4b3c a6ea fc3b a584 a23c
000003c0: 8914 89bb bfab f1bc 072e 423c f56c 7cbc
000003d0: 06a6 b93c 631b 8fbb 1e3e c63b 0e9b 02bd
000003e0: 2ab9 4d3c a430 c63b ac48 7fbc dcfa 23ba
000003f0: 8690 a8bb 90b0 e2bc 08cd d63c 6d8a bd3b

calibrate.in_conv.0.bias f4 [16]
0.00987742 0.0017829305 -0.013915582 0.011774558 -0.015020173 0.0043583936 0.033239674 0.013758361
0.011486067 0.0071553676 0.0054839435 0.0077398634 0.016864039 -0.011022955 0.005862965 0.0051773153
00000000: e7d4 213c 38b1 e93a 2efe 63bc 13ea 403c
00000010: 2c17 76bc dbd0 8e3b 5326 083d c06a 613c
00000020: 0f30 3c3c 9377 ea3b a7b2 b33b ae9e fd3b
00000030: 7426 8a3c a099 34bc 1d1e c03b 78a6 a93b

calibrate.in_conv.1.weight f4 [16]
0.9590742 0.9551744 0.92273575 1.0111732 0.9656908 0.97398067 0.9950022 1.0303988
0.9552592 0.92717534 0.9434888 0.98941654 0.97730213 0.88495696 0.98842627 0.959607
00000000: e385 753f 4f86 743f 6938 6c3f 206e 813f
00000010: 8337 773f cc56 793f 77b8 7e3f 1ce4 833f
00000020: de8b 743f 5d5b 6d3f 7b88 713f 674a 7d3f
00000030: 7930 7a3f 8a8c 623f 8109 7d3f cea8 753f

calibrate.in_conv.1.bias f4 [16]
0.015458625 0.0674466 0.035711944 0.041104898 0.0010541102 0.052478883 0.058104116 0.04864941
0.082544275 0.044473782 0.024778299 0.05641867 0.060489304 0.0050060772 0.02510396 0.061035868
00000000: 2c46 7d3c 7121 8a3d b046 123d 9c5d 283d
00000010: 122a 8a3a 19f4 563d 95fe 6d3d 9b44 473d
00000020: f90c a93d 242a 363d dcfb ca3c 4317 673d
00000030: a2c3 773d 050a a43b d2a6 cd3c bf00 7a3d

calibrate.in_conv.1.running_mean f4 [16]
0.0045261434 -0.0070472416 -0.03151578 0.010328276 0.03297625 -0.007403989 -0.0038600906 -0.0089810295
0.0025941571 -0.008922569 0.03521754 0.0069530304 0.020754872 -0.056259803 -0.011192622 -0.009741339
00000000: 0b50 943b 8cec e6bb b116 01bd ee37 293c
00000010: 1b12 073d 299d f2bb 93f9 7cbb 2b25 13bc
00000020: bc02 2a3b f82f 12bc 4440 103d 3fd6 e33b
00000030: 1f06 aa3c ae70 66bd 4261 37bc 239a 1fbc

calibrate.in_conv.1.running_var f4 [16]
2.1873095e-05 2.6705353e-05 0.00026988788 6.8467314e-05 0.00035957372 2.2239004e-05 3.6217527e-05 3.5899335e-05
1.3892301e-05 4.64857e-05 0.00043020147 4.9347353e-05 0.00014670183 0.0010220424 6.2438085e-05 2.7664331e-05
00000000: 1d7c b737 4f05 e037 bd7f 8d39 1c96 8f38
00000010: 2b85 bc39 e68d ba37 46e8 1738 9e92 1638
00000020: fa12 6937 a4f9 4238 aa8c e139 51fa 4e38
00000030: f9d3 1939 0df6 853a 31f1 8238 b310 e837

calibrate.convs.0.weight f4 [16, 16, 3, 3]
0.0037559639 0.04492556 -0.0038356835 -0.009901982 -0.030178916 0.040481143 0.043254092 -0.011780449
-0.013664843 -0.010394424 0.040822208 -0.047952343 0.010456129 0.00092297816 -0.04071593 0.014465797
0.015052393 0.017878687 -0.01747213 0.025565956 -0.021430923 0.010236321 -0.029029667 0.034980163
-0.02908764 0.025237512 0.012424794 -0.0015041945 0.016968299 0.0053247763 -0.01343381 -0.01670478
-0.040144656 0.011694593 -0.07356448 -0.057621226 0.0023795143 -0.019706206 -0.010962094 0.01724176
0.014933464 0.0041418513 0.003823382 -0.07438602 -0.07472129 -0.015762318 0.03379213 -0.021629723
-0.027050434 0.025561072 0.03800021 -0.018089408 0.008917305 0.039689526 0.01598744 0.037563685
0.03137862 0.025553938 0.040689383 0.0094001945 -0.0033809268 -0.011038343 -0.022184858 -0.023128392
0.021538686 -0.03626443 -0.032509897 -0.022465713 0.019168347 -0.045451894 0.03227364 0.0021571654
-0.0054981024 0.030375127 0.019943928 -0.030957935 -0.0045011244 -0.015272885 0.022977458 -0.029826801
0.011159843 -0.041430652 -0.021821795 -0.03475738 0.00296076 0.0052664108 -0.0044023897 -0.020099675
-0.0040772245 -0.017728481 -0.028564181 -0.00922263 -0.00019212354 0.004014292 -0.012594994 -0.0068341168
-0.03301036 -0.0076684053 -0.029923126 0.0008460517 -0.02259781 0.0043984675 0.00019869884 -0.0030622657
0.027552718 -0.011449937 -0.0066449544 0.04031508 0.012315831 -0.033593148 0.015601444 -0.019171635
0.023004003 -0.04773496 0.017921573 0.052980512 -0.034123063 -0.0015588413 0.0011274626 -0.009369575
-0.027872458 0.032928538 -0.021588976 -0.00052747305 -0.004981579 0.045672365 0.0017214962 -0.0025255934
-0.025823526 -0.015621708 -0.00031713222 -0.0046897917 -0.023759218 -0.0063747573 -0.023639513 -0.018866537
0.037629534 0.024946025 0.015721163 -0.05428607 0.011916691 -0.019861298 -0.008869502 -0.0010788575
0.023812171 -0.014437877 0.0020445501 0.026466565 -0.024170311 -0.0012158023 -0.019515686 0.021499692
-0.0034340173 -0.0012937326 -0.03563931 0.063644744 -0.011170684 0.051961828 0.059764244 -0.03999417
0.009248789 0.01220764 0.009951355 -0.035599697 0.017044535 -0.012737659 0.0034113748 0.023587752
-0.02412517 0.010456706 -0.010327814 -0.012911812 0.009193166 -0.019261071 -0.029196085 -0.0039009303
0.011972978 -0.036697842 0.038353577 0.0034099557 -0.020237913 -0.006863453 0.028716315 -0.0025076743
0.03347191 0.035220206 0.0022273157 0.008122801 0.022675663 0.0054312404 0.001036603 0.01812566
0.00877641 -0.030077431 0.02337003 0.01898997 -0.011088245 -0.0014184662 0.020959849 0.013078064
0.004733381 -0.0026629847 -0.020018088 0.0128265275 0.045584083 0.019876318 0.011280565 0.008115223
-0.03800983 0.0034156006 0.0460976 -0.008404664 2.5267955e-05 -0.004897109 -0.029924516 -0.00945691
0.015966695 -0.01064339 0.002735892 -0.013456716 0.04398404 -0.007220269 0.0090228105 0.009512336
0.0065058935 0.003343805 0.015104024 -0.0036155332 0.018461391 -0.017253393 0.013682057 0.0025157363
-0.010905672 0.013531711 0.004953133 0.023563957 0.029612334 0.025722595 0.011286955 0.025732968
0.035895504 0.013770818 0.009855045 0.01238849 0.020096553 -0.009668271 -0.025608294 -0.015685529
0.015088574 -0.007679952 -0.011914193 -0.020225868 -0.015302339 0.009720527 0.00041020883 0.002832049
00000000: 9e26 763b dd03 383d 1760 7bbb ec3b 22bc
00000010: c639 f7bc 8ecf 253d 342b 313d c902 41bc
00000020: 81e2 5fbc 604d 2abc 3035 273d ad69 44bd
00000030: 2f50 2b3c 04f4 713a bfc5 26bd f301 6d3c
00000040: 509e 763c 5376 923c b621 8fbc b26f d13c
00000050: e78f afbc 3eb6 273c a0cf edbc 5c47 0f3d
00000060: 3449 eebc e6be ce3c 5d91 4b3c 6428 c5ba
00000070: 1a01 8b3c 767b ae3b 7c19 5cbc 76d8 88bc
00000080: b96e 24bd ae9a 3f3c f9a8 96bd 3c04 6cbd
00000090: a0f1 1b3b e96e a1bc 5b9a 33bc 973e 8d3c
000000a0: 7dab 743c 5eb8 873b b591 7a3b b357 98bd
000000b0: 7a07 99bd fa1f 81bc 9e69 0a3d d130 b1bc
000000c0: df98 ddbc 7465 d13c 1ca6 1b3d 3d30 94bc
000000d0: e319 123c 7c91 223d 17f8 823c 61dc 193d
000000e0: de86 003d 7e56 d13c e9a9 263d 4603 1a3c
000000f0: 8a92 5dbb 2bda 34bc 05bd b5bc c177 bdbc
00000100: e671 b03c 038a 14bd 1929 05bd 040a b8bc
00000110: f006 9d3c c42b 3abd 5d31 043d 3b5f 0d3b
00000120: 6d29 b4bb 42d5 f83c 7361 a33c 7f9b fdbc
00000130: 2b7e 93bb 1f3b 7abc 393b bc3c 5657 f4bc
00000140: c6d7 363c 30b3 29bd 9fc3 b2bc c15d 0ebd
00000150: 4f09 423b db91 ac3b ec41 90bb 13a8 a4bc
00000160: 3d9a 85bb 523b 91bc 6eff e9bc 841a 17bc
00000170: c574 49b9 528a 833b 3c5b 4ebc baf0 dfbb
00000180: df35 07bd 3f47 fbbb 5821 f5bc 92c9 5d3a
00000190: 0b1f b9bc 0521 903b d059 5039 4bb0 48bb
000001a0: 3db6 e13c 8498 3bbc ebbd d9bb 6d21 253d
000001b0: 57c8 493c f898 09bd 339d 7f3c d50d 9dbc
000001c0: e472 bc3c bc85 43bd 43d0 923c 1802 593d
000001d0: a0c4 0bbd 0952 ccba 5ec7 933a d982 19bc
000001e0: c854 e4bc 13e0 063d 5ddb b0bc 1e46 0aba
000001f0: 833c a3bb f212 3b3d d4a3 e13a 6d84 25bb
00000200: dc8b d3bc 31f2 7fbc c444 a6b9 d3ac 99bb
00000210: b1a2 c2bc 57e3 d0bb a7a7 c1bc ff8d 9abc
00000220: 6d21 1a3d 9b5b cc3c abc9 803c 125b 5ebd
00000230: 3a3e 433c 29b4 a2bc 6351 11bc 7368 8dba
00000240: be11 c33c d88c 6cbc dcfd 053b 69d0 d83c
00000250: d100 c6bc 8e5b 9fba 5cdf 9fbc 1f20 b03c
00000260: 400d 61bb 7692 a9ba 86fa 11bd 2d58 823d
00000270: 3f05 37bc edd5 543d 5acb 743d edd0 23bd
00000280: 3c88 173c 8e02 483c 020b 233c fdd0 11bd
00000290: fba0 8b3c 9db1 50bc 5f91 5f3b 1a3b c13c
000002a0: 26a2 c5bc 9b52 2b3c fe35 29bc 118c 53bc
000002b0: ef9e 163c 65c9 9dbc a12c efbc c0a6 7fbb
000002c0: 4f2a 443c 7a50 16bd a418 1d3d 9079 5f3b
000002d0: fbc9 a5bc d1e6 e0bb 7a3e eb3c cb57 24bb
000002e0: d719 093d 1043 103d 28f8 113b 7f15 053c
000002f0: 50c2 b93c 8cf8 b13b a0de 873a 447c 943c
00000300: eeca 0f3c f264 f6bc 8172 bf3c db90 9b3c
00000310: 78ab 35bc d4eb b9ba fdb3 ab3c 6045 563c
00000320: 7a1a 9b3b 7885 2ebb f9fc a3bc 5b26 523c
00000330: 60b6 3a3d a9d3 a23c 1ed2 383c b6f5 043c
00000340: 32b0 1bbd 45d8 5f3b d6d0 3c3d b7b3 09bc
00000350: 85f6 d337 ed77 a0bb 4224 f5bc 28f1 1abc
00000360: 96cc 823c 9d61 2ebc a74c 333b 8f79 5cbc
00000370: 9c28 343d 0298 ecbb 69d4 133c a1d9 1b3c
00000380: 642f d53b bd23 5b3b de76 773c 95f2 6cbb
00000390: 583c 973c fd56 8dbc b52a 603c 0ddf 243b
000003a0: b4ad 32bc 1cb4 5d3c e44d a23b 3309 c13c
000003b0: 9195 f23c 31b8 d23c ecec 383c f2cd d23c
000003c0: 2a07 133d ff9e 613c 0e77 213c 18f9 4a3c
000003d0: 87a1 a43c ab67 1ebc 7cc8 d1bc f07e 80bc
000003e0: 1136 773c 1ba8 fbbb bf33 43bc b8b0 a5bc
000003f0: a9b6 7abc d842 1f3c 4c11 d739 e699 393b

calibrate.convs.0.bias f4 [16]
0.0057558184 -0.01450724 -0.0041297046 0.0052127885 -0.005505066 0.005098171 -0.023350028 -0.024367891
0.0024315338 -0.0029361637 -0.010256188 -0.02549107 -0.015837159 0.022607015 -0.03868072 -0.040356055
00000000: 4e9b bc3b c6af 6dbc 7952 87bb 0ad0 aa3b
00000010: d763 b4bb 8f0e a73b 8f48 bfbc 2c9f c7bc
00000020: 5e5a 1f3b a76c 40bb 9209 28bc a6d2 d0bc
00000030: eebc 81bc 5932 b93c ad6f 1ebd 644c 25bd

calibrate.convs.1.weight f4 [16]
0.9485241 0.9503878 0.9300318 0.91143066 0.89524 0.9597214 0.93447715 0.9170291
0.88768256 0.9314213 0.9168977 0.944362 0.8725787 0.9031883 0.92144936 0.90649974
00000000: 7ad2 723f 9d4c 733f 9016 6e3f 8553 693f
00000010: 732e 653f 4db0 753f e539 6f3f 6bc2 6a3f
00000020: 2a3f 633f a071 6e3f cfb9 6a3f b5c1 713f
00000030: 5161 5f3f 5937 673f 1be4 6b3f 5e10 683f

calibrate.convs.1.bias f4 [16]
0.009553533 -0.015836308 0.02028726 0.0018143607 0.007816714 0.0029805098 -0.004525827 -0.028786402
0.009901562 0.019393893 0.0059314626 -0.044522896 -0.0011521768 0.019804131 -0.0036524017 -0.000305563
00000000: 6c86 1c3c 25bb 81bc 7831 a63c d8cf ed3a
00000010: ad11 003c a854 433b 634d 94bb 76d1 ebbc
00000020: 293a 223c f1df 9e3c b75c c23b a45d 36bd
00000030: a304 97ba 463c a23c 225d 6fbb f933 a0b9

calibrate.convs.1.running_mean f4 [16]
-0.37570462 0.47036073 0.11926525 0.055077277 -0.3044903 0.32282013 0.1022324 0.4621256
-0.1958459 0.08303458 -0.016449684 0.6949203 0.17287154 -0.1245947 0.5346777 0.44160798
00000000: 5b5c c0be 1fd3 f03e 5741 f43d b698 613d
00000010: 27e6 9bbe ae48 a53e 385f d13d ba9b ec3e
00000020: d48b 48be 090e aa3d 7dc1 86bc 4ce6 313f
00000030: 3d05 313e 822b ffbd a3e0 083f 711a e23e

calibrate.convs.1.running_var f4 [16]
0.18526934 0.39090168 0.10993282 0.096516274 0.17643085 0.34179816 0.12144597 0.1909116
0.3903714 0.30125457 0.057043824 0.2078819 0.47468993 0.3812295 0.07218475 0.12724221
00000000: 3fb7 3d3e 4424 c83e 7524 e13d 53aa c53d
00000010: 4aaa 343e 2b00 af3e aab8 f83d 557e 433e
00000020: c3de c73e 0a3e 9a3e c9a6 693d fede 543e
00000030: 8f0a f33e 8330 c33e 99d5 933d c84b 023e

calibrate.convs.3.weight f4 [16, 16, 3, 3]
0.024928909 -0.03248891 0.05279172 0.04910469 0.016171811 0.067766234 -0.039350767 0.058189273
0.01907678 -0.00045050832 0.031275246 -0.024295732 -0.001637103 -0.00030817214 0.009945379 0.0141531
-0.031161513 0.01446953 0.0073541966 0.02029241 0.010441787 0.02364648 0.015292744 0.0005351503
-0.014716169 0.008618808 0.0008627774 0.01627223 -0.0014057959 -0.01153594 0.011196337 -0.009333154
0.019051233 0.0035283843 0.006523355 -0.0010736588 -0.014837828 -0.005461677 -0.004644707 0.028585969
0.035136316 0.0031503753 0.014938754 0.020379057 -0.010438501 0.009650666 0.027614933 -0.012069354
0.0104458565 0.0076285535 0.0056052445 0.01218356 0.037160352 0.028853389 -0.020829927 -0.0028927776
0.033360533 0.045716465 -0.002465109 0.026026422 0.007977286 0.06975032 -0.00021969173 0.0016171449
0.0010101056 -0.0016912953 -0.012675921 0.06305896 0.039263073 0.0074086366 -0.02069038 0.013138204
-0.024460942 0.039720457 0.009183487 0.025321756 0.02591914 0.025538329 -0.00096228183 -0.017414782
0.002945656 0.008043122 0.000411719 -0.0020888557 -0.005271723 -0.0111583015 0.0056855143 -0.010235819
-0.004827527 0.01656989 -0.024209665 -0.018790174 0.012540712 -0.020803219 0.01757354 -0.0029175412
0.009449609 -0.017102906 -0.010153416 0.029054761 0.001089527 0.007055928 0.033334393 0.03563447
-0.0041995323 -0.015803562 0.030241378 -0.00029313823 0.035080347 0.01369582 -0.029848274 0.0034802197
0.005427236 -0.019441316 0.00079332263 0.019693779 -0.010858104 0.0071995286 0.019441038 -0.024148174
-0.0147209205 0.020285493 -0.010277858 0.017903445 0.0039231125 -0.012691467 -0.019965053 0.00043515878
-0.001738039 -0.009875765 -0.042963903 -0.009132534 0.02042386 0.031922705 -0.00813361 0.007040055
-0.009934401 -0.0013287775 -0.026102893 -0.0034153052 0.0027253437 0.016242415 0.030140921 -0.02606395
-0.0016699339 0.04613322 -0.002640323 -0.009454488 0.01503373 0.045595173 -0.053620946 -0.0029168066
-0.03701482 -0.0018442562 0.02544117 0.03771911 -0.06076024 -0.012374245 0.0113961715 0.014755299
0.0065521034 -0.018658306 0.0035177623 -0.0027419743 -0.014353876 0.003854131 0.042384032 0.013247855
0.0046139476 0.02026936 0.024405276 0.013228678 -0.013944739 0.008806972 0.010081985 -0.0045746895
-0.0022400974 -0.014248752 -0.00515354 -0.00044808554 0.009256604 0.05091161 0.0256439 -0.0067466605
0.0035518056 0.0053285654 -0.020553622 0.028273946 -0.000622444 0.014608528 -0.0027170114 -0.020338407
0.02257586 0.041560248 -0.016785378 -0.0045733764 -0.029048419 0.011261891 0.0023178372 0.00029106857
-0.01898728 0.00051949185 0.020643637 0.02188687 0.015714493 0.016746942 -0.007984221 0.01360657
0.0018247734 0.0008183023 -0.010576793 0.0029420825 0.025702469 0.022607813 -0.00035320738 -0.021980757
-0.037672408 0.024703842 0.059203286 0.0055265715 0.031590626 0.0034583595 0.010326123 0.012998643
-0.030646103 0.026557393 -0.022005461 -0.03344798 0.028549682 0.047219824 0.046788026 0.0072005833
-0.012633599 0.011552816 -0.020016968 -0.0062660286 -0.010495793 -0.02355612 -0.025963929 -0.03492222
-0.004991889 -0.026896805 -0.007130484 -0.020764858 0.02648982 -0.0028796047 0.01963081 0.003466388
-0.008175097 0.018700624 0.010844234 0.026062699 0.023907142 -0.007718199 0.027643153 0.02891412
00000000: b637 cc3c 1713 05bd 213c 583d 0022 493d
00000010: bf7a 843c 06c9 8a3d 452e 21bd e057 6e3d
00000020: e846 9c3c 3432 ecb9 791a 003d d807 c7bc
00000030: 1094 d6ba 2a92 a1b9 f1f1 223c 67e2 673c
00000040: 6e46 ffbc 9c11 6d3c 79fb f03b 453c a63c
00000050: 0714 2b3c 43b6 c13c 6b8e 7a3c 5449 0c3a
00000060: 161c 71bc e735 0d3c 032c 623a 574d 853c
00000070: af42 b8ba 3d01 3dbc d770 373c 16ea 18bc
00000080: 5511 9c3c 773c 673b dec1 d53b 03ba 8cba
00000090: 5d1a 73bc def7 b2bb a032 98bb 1f2d ea3c
000000a0: 19eb 0f3d 8776 4e3b adc1 743c fbf1 a63c
000000b0: 3f06 2bbc d41d 1e3c b638 e23c 8abe 45bc
000000c0: 1925 2b3c f2f8 f93b 33ac b73b 8e9d 473c
000000d0: 7435 183d f15d ec3c 86a3 aabc c194 3dbb
000000e0: 0ea5 083d 3041 3b3d ab8d 21bb 5d35 d53c
000000f0: 2ab3 023c 41d9 8e3d 0d5d 66b9 61f6 d33a
00000100: 8565 843a 74ae ddba abae 4fbc 0e25 813d
00000110: 51d2 203d 26c4 f23b df7e a9bc 9f41 573c
00000120: 5062 c8bc ebb1 223d 5676 163c 926f cf3c
00000130: 6054 d43c c235 d13c a441 7cba 72a9 8ebc
00000140: e80b 413b 4cc7 033c fddb d739 2fe5 08bb
00000150: 6bbe acbb 4fd1 36bc 8d4d ba3b 23b4 27bc
00000160: 3b30 9ebb 94bd 873c 5953 c6bc daed 99bc
00000170: 8f77 4d3c 836b aabc 62f6 8f3c 3834 3fbb
00000180: 88d2 1a3c 651b 8cbc 835a 26bc 4004 ee3c
00000190: 76ce 8e3a 6a35 e73b a589 083d 73f5 113d
000001a0: 3b9c 89bb 7976 81bc c4bc f73c 59b0 99b9
000001b0: 69b0 0f3d 6f64 603c 5e84 f4bc 6614 643b
000001c0: f5d6 b13b 6543 9fbc fbf6 4f3a d954 a13c
000001d0: 30e6 31bc 06ea eb3b d042 9f3c 64d2 c5bc
000001e0: 0430 71bc c32d a63c 7664 28bc 3faa 923c
000001f0: 748d 803b dfef 4fbc c08d a3bc 0626 e439
00000200: e9ce e3ba f6cd 21bc ebfa 2fbd a0a0 15bc
00000210: f04f a73c 62c1 023d d542 05bc 43b0 e63b
00000220: e6c3 22bc 602a aeba bcd5 d5bc 50d3 5fbb
00000230: ae9b 323b d00e 853c 18ea f63c 1184 d5bc
00000240: afe1 daba 30f6 3c3d 4509 2dbb ffe6 1abc
00000250: 0950 763c 01c2 3a3d a3a1 5bbd e527 3fbb
00000260: da9c 17bd f8ba f1ba 006a d03c 5a7f 1a3d
00000270: bbdf 78bd 58bd 4abc 02b7 3a3c 36c0 713c
00000280: 07b3 d63b 4ed9 98bc 428a 663b b2b2 33bb
00000290: 852c 6bbc 9795 7c3b e19a 2d3d 880d 593c
000002a0: 9930 973b ee0b a63c 93ed c73c 19bd 583c
000002b0: 7978 64bc 1e4b 103c e92e 253c 47e7 95bb
000002c0: 99ce 12bb 9973 69bc 07df a8bb 06ed eab9
000002d0: 03a9 173c b188 503d 2813 d23c 1713 ddbb
000002e0: 69c5 683b 3f9b ae3b 1260 a8bc c39e e73c
000002f0: 822b 23ba 9c58 6f3c e30f 32bb bb9c a6bc
00000300: 03f1 b83c 143b 2a3d 7d81 89bc 43dc 95bb
00000310: f3f6 edbc cb83 383c dbe6 173b 909a 9839
00000320: 368b 9bbc 822e 083a d81c a93c 184c b33c
00000330: aebb 803c e230 893c 40d0 02bc 17ee 5e3c
00000340: 3c2d ef3a 5683 563a 494a 2dbc f4cf 403b
00000350: fc8d d23c 0534 b93c b12e b9b9 fd10 b4bc
00000360: 624e 1abd b65f ca3c 257f 723d 3e18 b53b
00000370: 2c65 013d a5a5 623b e62e 293c 43f8 543c
00000380: 890d fbbc e48e d93c cc44 b4bc c000 09bd
00000390: 06e1 e93c 9369 413d cda4 3f3d dff2 eb3b
000003a0: 28fd 4ebc 0648 3d3c a0fa a3bc 4253 cdbb
000003b0: 8cf6 2bbc c4f8 c0bc 4eb2 d4bc 9a0a 0fbd
000003c0: 0093 a3bb b056 dcbc d6a6 e9bb 101b aabc
000003d0: 2e01 d93c c0b7 3cbb cbd0 a03c 572c 633b
000003e0: d8f0 05bc 0d32 993c 04ac 313c 7181 d53c
000003f0: e9d8 c33c f2e8 fcbb e573 e23c 4edd ec3c

calibrate.convs.3.bias f4 [16]
-0.012437369 0.010695167 0.007143354 -0.0068091736 -0.0025710783 -0.0102663385 -0.014858561 0.026774118
-0.015743123 0.052178346 0.020559436 -0.026773559 -0.008067925 -0.021921795 0.02826682 0.038205285
00000000: 1bc6 4bbc c83a 2f3c cc12 ea3b 7d1f dfbb
00000010: 897f 28bb 2534 28bc 5271 73bc 6555 db3c
00000020: b9f7 80bc f6b8 553d 436c a83c 3954 dbbc
00000030: 552f 04bc 5695 b3bc d18f e73c 257d 1c3d

calibrate.convs.4.weight f4 [16]
0.96680504 0.9718966 0.9935461 0.96712965 0.9235295 0.92942005 0.9600129 0.8981185
0.9748294 1.0014958 0.8881846 0.9319366 0.88964146 0.9293577 0.8967142 0.94127434
00000000: 8980 773f 37ce 783f 0a59 7e3f cf95 773f
00000010: 6e6c 6c3f 79ee 6d3f 68c3 753f 18eb 653f
00000020: 6b8e 793f 0431 803f 1160 633f 6693 6e3f
00000030: 8bbf 633f 63ea 6d3f 108f 653f 5bf7 703f

calibrate.convs.4.bias f4 [16]
-0.0122956 0.0067830915 0.041043747 -0.018666435 -0.006707673 0.00033521533 0.03225884 0.010638846
0.016479034 0.049156696 0.008548496 -0.0028009675 0.01084019 0.033897325 0.027968924 0.020623198
00000000: 7c73 49bc b244 de3b 7d1d 283d 5aea 98bc
00000010: 0acc dbbb d7bf af39 d821 043d 8e4e 2e3c
00000020: 0aff 863c 8858 493d fe0e 0c3c 7090 37bb
00000030: 0d9b 313c ecd7 0a3d 161f e53c fbf1 a83c

calibrate.convs.4.running_mean f4 [16]
0.19375522 0.12972547 -0.2029248 0.08899967 0.21526192 0.18700062 -0.09079672 0.07323494
-0.16648293 -0.32683244 -0.094987184 -0.11725996 -0.13633758 -0.15173596 -0.28030446 -0.14986439
00000000: c567 463e c1d6 043e 85cb 4fbe 7645 b63d
00000010: 9f6d 5c3e 177d 3f3e a1f3 b9bd 33fc 953d
00000020: 807a 2abe 9556 a7be a488 c2bd fd25 f0bd
00000030: 149c 0bbe ac60 1bbe 1184 8fbe 0d76 19be

calibrate.convs.4.running_var f4 [16]
0.26988983 0.33795002 0.1749194 0.29092202 0.34504902 0.2600789 0.07339313 0.23987041
0.24965712 0.22797291 0.060533557 0.16289474 0.07683043 0.12667063 0.24554032 0.1174588
00000000: 002f 8a3e c907 ad3e 121e 333e bbf3 943e
00000010: 44aa b03e 1029 853e 234f 963d 97a0 753e
00000020: 1ea6 7f3e bb71 693e 09f2 773d e1cd 263e
00000030: 4659 9d3d f2b5 013e ec6e 7b3e 3d8e f03d

calibrate.blocks.0.0.weight f4 [16, 16, 3, 3]
0.0037559639 0.04492556 -0.0038356835 -0.009901982 -0.030178916 0.040481143 0.043254092 -0.011780449
-0.013664843 -0.010394424 0.040822208 -0.047952343 0.010456129 0.00092297816 -0.04071593 0.014465797
0.015052393 0.017878687 -0.01747213 0.025565956 -0.021430923 0.010236321 -0.029029667 0.034980163
-0.02908764 0.025237512 0.012424794 -0.0015041945 0.016968299 0.0053247763 -0.01343381 -0.01670478
-0.040144656 0.011694593 -0.07356448 -0.057621226 0.0023795143 -0.019706206 -0.010962094 0.01724176
0.014933464 0.0041418513 0.003823382 -0.07438602 -0.07472129 -0.015762318 0.03379213 -0.021629723
-0.027050434 0.025561072 0.03800021 -0.018089408 0.008917305 0.039689526 0.01598744 0.037563685
0.03137862 0.025553938 0.040689383 0.0094001945 -0.0033809268 -0.011038343 -0.022184858 -0.023128392
0.021538686 -0.03626443 -0.032509897 -0.022465713 0.019168347 -0.045451894 0.03227364 0.0021571654
-0.0054981024 0.030375127 0.019943928 -0.030957935 -0.0045011244 -0.015272885 0.022977458 -0.029826801
0.011159843 -0.041430652 -0.021821795 -0.03475738 0.00296076 0.0052664108 -0.0044023897 -0.020099675
-0.0040772245 -0.017728481 -0.028564181 -0.00922263 -0.00019212354 0.004014292 -0.012594994 -0.0068341168
-0.03301036 -0.0076684053 -0.029923126 0.0008460517 -0.02259781 0.0043984675 0.00019869884 -0.0030622657
0.027552718 -0.011449937 -0.0066449544 0.04031508 0.012315831 -0.033593148 0.015601444 -0.019171635
0.023004003 -0.04773496 0.017921573 0.052980512 -0.034123063 -0.0015588413 0.0011274626 -0.009369575
-0.027872458 0.032928538 -0.021588976 -0.00052747305 -0.004981579 0.045672365 0.0017214962 -0.0025255934
-0.025823526 -0.015621708 -0.00031713222 -0.0046897917 -0.023759218 -0.0063747573 -0.023639513 -0.018866537
0.037629534 0.024946025 0.015721163 -0.05428607 0.011916691 -0.019861298 -0.008869502 -0.0010788575
0.023812171 -0.014437877 0.0020445501 0.026466565 -0.024170311 -0.0012158023 -0.019515686 0.021499692
-0.0034340173 -0.0012937326 -0.03563931 0.063644744 -0.011170684 0.051961828 0.059764244 -0.03999417
0.009248789 0.01220764 0.009951355 -0.035599697 0.017044535 -0.012737659 0.0034113748 0.023587752
-0.02412517 0.010456706 -0.010327814 -0.012911812 0.009193166 -0.019261071 -0.029196085 -0.0039009303
0.011972978 -0.036697842 0.038353577 0.0034099557 -0.020237913 -0.006863453 0.028716315 -0.0025076743
0.03347191 0.035220206 0.0022273157 0.008122801 0.022675663 0.0054312404 0.001036603 0.01812566
0.00877641 -0.030077431 0.02337003 0.01898997 -0.011088245 -0.0014184662 0.020959849 0.013078064
0.004733381 -0.0026629847 -0.020018088 0.0128265275 0.045584083 0.019876318 0.011280565 0.008115223
-0.03800983 0.0034156006 0.0460976 -0.008404664 2.5267955e-05 -0.004897109 -0.029924516 -0.00945691
0.015966695 -0.01064339 0.002735892 -0.013456716 0.04398404 -0.007220269 0.0090228105 0.009512336
0.0065058935 0.003343805 0.015104024 -0.0036155332 0.018461391 -0.017253393 0.013682057 0.0025157363
-0.010905672 0.013531711 0.004953133 0.023563957 0.029612334 0.025722595 0.011286955 0.025732968
0.035895504 0.013770818 0.009855045 0.01238849 0.020096553 -0.009668271 -0.025608294 -0.015685529
0.015088574 -0.007679952 -0.011914193 -0.020225868 -0.015302339 0.009720527 0.00041020883 0.002832049
00000000: 9e26 763b dd03 383d 1760 7bbb ec3b 22bc
00000010: c639 f7bc 8ecf 253d 342b 313d c902 41bc
00000020: 81e2 5fbc 604d 2abc 3035 273d ad69 44bd
00000030: 2f50 2b3c 04f4 713a bfc5 26bd f301 6d3c
00000040: 509e 763c 5376 923c b621 8fbc b26f d13c
00000050: e78f afbc 3eb6 273c a0cf edbc 5c47 0f3d
00000060: 3449 eebc e6be ce3c 5d91 4b3c 6428 c5ba
00000070: 1a01 8b3c 767b ae3b 7c19 5cbc 76d8 88bc
00000080: b96e 24bd ae9a 3f3c f9a8 96bd 3c04 6cbd
00000090: a0f1 1b3b e96e a1bc 5b9a 33bc 973e 8d3c
000000a0: 7dab 743c 5eb8 873b b591 7a3b b357 98bd
000000b0: 7a07 99bd fa1f 81bc 9e69 0a3d d130 b1bc
000000c0: df98 ddbc 7465 d13c 1ca6 1b3d 3d30 94bc
000000d0: e319 123c 7c91 223d 17f8 823c 61dc 193d
000000e0: de86 003d 7e56 d13c e9a9 263d 4603 1a3c
000000f0: 8a92 5dbb 2bda 34bc 05bd b5bc c177 bdbc
00000100: e671 b03c 038a 14bd 1929 05bd 040a b8bc
00000110: f006 9d3c c42b 3abd 5d31 043d 3b5f 0d3b
00000120: 6d29 b4bb 42d5 f83c 7361 a33c 7f9b fdbc
00000130: 2b7e 93bb 1f3b 7abc 393b bc3c 5657 f4bc
00000140: c6d7 363c 30b3 29bd 9fc3 b2bc c15d 0ebd
00000150: 4f09 423b db91 ac3b ec41 90bb 13a8 a4bc
00000160: 3d9a 85bb 523b 91bc 6eff e9bc 841a 17bc
00000170: c574 49b9 528a 833b 3c5b 4ebc baf0 dfbb
00000180: df35 07bd 3f47 fbbb 5821 f5bc 92c9 5d3a
00000190: 0b1f b9bc 0521 903b d059 5039 4bb0 48bb
000001a0: 3db6 e13c 8498 3bbc ebbd d9bb 6d21 253d
000001b0: 57c8 493c f898 09bd 339d 7f3c d50d 9dbc
000001c0: e472 bc3c bc85 43bd 43d0 923c 1802 593d
000001d0: a0c4 0bbd 0952 ccba 5ec7 933a d982 19bc
000001e0: c854 e4bc 13e0 063d 5ddb b0bc 1e46 0aba
000001f0: 833c a3bb f212 3b3d d4a3 e13a 6d84 25bb
00000200: dc8b d3bc 31f2 7fbc c444 a6b9 d3ac 99bb
00000210: b1a2 c2bc 57e3 d0bb a7a7 c1bc ff8d 9abc
00000220: 6d21 1a3d 9b5b cc3c abc9 803c 125b 5ebd
00000230: 3a3e 433c 29b4 a2bc 6351 11bc 7368 8dba
00000240: be11 c33c d88c 6cbc dcfd 053b 69d0 d83c
00000250: d100 c6bc 8e5b 9fba 5cdf 9fbc 1f20 b03c
00000260: 400d 61bb 7692 a9ba 86fa 11bd 2d58 823d
00000270: 3f05 37bc edd5 543d 5acb 743d edd0 23bd
00000280: 3c88 173c 8e02 483c 020b 233c fdd0 11bd
00000290: fba0 8b3c 9db1 50bc 5f91 5f3b 1a3b c13c
000002a0: 26a2 c5bc 9b52 2b3c fe35 29bc 118c 53bc
000002b0: ef9e 163c 65c9 9dbc a12c efbc c0a6 7fbb
000002c0: 4f2a 443c 7a50 16bd a418 1d3d 9079 5f3b
000002d0: fbc9 a5bc d1e6 e0bb 7a3e eb3c cb57 24bb
000002e0: d719 093d 1043 103d 28f8 113b 7f15 053c
000002f0: 50c2 b93c 8cf8 b13b a0de 873a 447c 943c
00000300: eeca 0f3c f264 f6bc 8172 bf3c db90 9b3c
00000310: 78ab 35bc d4eb b9ba fdb3 ab3c 6045 563c
00000320: 7a1a 9b3b 7885 2ebb f9fc a3bc 5b26 523c
00000330: 60b6 3a3d a9d3 a23c 1ed2 383c b6f5 043c
00000340: 32b0 1bbd 45d8 5f3b d6d0 3c3d b7b3 09bc
00000350: 85f6 d337 ed77 a0bb 4224 f5bc 28f1 1abc
00000360: 96cc 823c 9d61 2ebc a74c 333b 8f79 5cbc
00000370: 9c28 343d 0298 ecbb 69d4 133c a1d9 1b3c
00000380: 642f d53b bd23 5b3b de76 773c 95f2 6cbb
00000390: 583c 973c fd56 8dbc b52a 603c 0ddf 243b
000003a0: b4ad 32bc 1cb4 5d3c e44d a23b 3309 c13c
000003b0: 9195 f23c 31b8 d23c ecec 383c f2cd d23c
000003c0: 2a07 133d ff9e 613c 0e77 213c 18f9 4a3c
000003d0: 87a1 a43c ab67 1ebc 7cc8 d1bc f07e 80bc
000003e0: 1136 773c 1ba8 fbbb bf33 43bc b8b0 a5bc
000003f0: a9b6 7abc d842 1f3c 4c11 d739 e699 393b

calibrate.blocks.0.0.bias f4 [16]
0.0057558184 -0.01450724 -0.0041297046 0.0052127885 -0.005505066 0.005098171 -0.023350028 -0.024367891
0.0024315338 -0.0029361637 -0.010256188 -0.02549107 -0.015837159 0.022607015 -0.03868072 -0.040356055
00000000: 4e9b bc3b c6af 6dbc 7952 87bb 0ad0 aa3b
00000010: d763 b4bb 8f0e a73b 8f48 bfbc 2c9f c7bc
00000020: 5e5a 1f3b a76c 40bb 9209 28bc a6d2 d0bc
00000030: eebc 81bc 5932 b93c ad6f 1ebd 644c 25bd

calibrate.blocks.0.1.weight f4 [16]
0.9485241 0.9503878 0.9300318 0.91143066 0.89524 0.9597214 0.93447715 0.9170291
0.88768256 0.9314213 0.9168977 0.944362 0.8725787 0.9031883 0.92144936 0.90649974
00000000: 7ad2 723f 9d4c 733f 9016 6e3f 8553 693f
00000010: 732e 653f 4db0 753f e539 6f3f 6bc2 6a3f
00000020: 2a3f 633f a071 6e3f cfb9 6a3f b5c1 713f
00000030: 5161 5f3f 5937 673f 1be4 6b3f 5e10 683f

calibrate.blocks.0.1.bias f4 [16]
0.009553533 -0.015836308 0.02028726 0.0018143607 0.007816714 0.0029805098 -0.004525827 -0.028786402
0.009901562 0.019393893 0.0059314626 -0.044522896 -0.0011521768 0.019804131 -0.0036524017 -0.000305563
00000000: 6c86 1c3c 25bb 81bc 7831 a63c d8cf ed3a
00000010: ad11 003c a854 433b 634d 94bb 76d1 ebbc
00000020: 293a 223c f1df 9e3c b75c c23b a45d 36bd
00000030: a304 97ba 463c a23c 225d 6fbb f933 a0b9

calibrate.blocks.0.1.running_mean f4 [16]
-0.37570462 0.47036073 0.11926525 0.055077277 -0.3044903 0.32282013 0.1022324 0.4621256
-0.1958459 0.08303458 -0.016449684 0.6949203 0.17287154 -0.1245947 0.5346777 0.44160798
00000000: 5b5c c0be 1fd3 f03e 5741 f43d b698 613d
00000010: 27e6 9bbe ae48 a53e 385f d13d ba9b ec3e
00000020: d48b 48be 090e aa3d 7dc1 86bc 4ce6 313f
00000030: 3d05 313e 822b ffbd a3e0 083f 711a e23e

calibrate.blocks.0.1.running_var f4 [16]
0.18526934 0.39090168 0.10993282 0.096516274 0.17643085 0.34179816 0.12144597 0.1909116
0.3903714 0.30125457 0.057043824 0.2078819 0.47468993 0.3812295 0.07218475 0.12724221
00000000: 3fb7 3d3e 4424 c83e 7524 e13d 53aa c53d
00000010: 4aaa 343e 2b00 af3e aab8 f83d 557e 433e
00000020: c3de c73e 0a3e 9a3e c9a6 693d fede 543e
00000030: 8f0a f33e 8330 c33e 99d5 933d c84b 023e

calibrate.blocks.0.3.weight f4 [16, 16, 3, 3]
0.024928909 -0.03248891 0.05279172 0.04910469 0.016171811 0.067766234 -0.039350767 0.058189273
0.01907678 -0.00045050832 0.031275246 -0.024295732 -0.001637103 -0.00030817214 0.009945379 0.0141531
-0.031161513 0.01446953 0.0073541966 0.02029241 0.010441787 0.02364648 0.015292744 0.0005351503
-0.014716169 0.008618808 0.0008627774 0.01627223 -0.0014057959 -0.01153594 0.011196337 -0.009333154
0.019051233 0.0035283843 0.006523355 -0.0010736588 -0.014837828 -0.005461677 -0.004644707 0.028585969
0.035136316 0.0031503753 0.014938754 0.020379057 -0.010438501 0.009650666 0.027614933 -0.012069354
0.0104458565 0.0076285535 0.0056052445 0.01218356 0.037160352 0.028853389 -0.020829927 -0.0028927776
0.033360533 0.045716465 -0.002465109 0.026026422 0.007977286 0.06975032 -0.00021969173 0.0016171449
0.0010101056 -0.0016912953 -0.012675921 0.06305896 0.039263073 0.0074086366 -0.02069038 0.013138204
-0.024460942 0.039720457 0.009183487 0.025321756 0.02591914 0.025538329 -0.00096228183 -0.017414782
0.002945656 0.008043122 0.000411719 -0.0020888557 -0.005271723 -0.0111583015 0.0056855143 -0.010235819
-0.004827527 0.01656989 -0.024209665 -0.018790174 0.012540712 -0.020803219 0.01757354 -0.0029175412
0.009449609 -0.017102906 -0.010153416 0.029054761 0.001089527 0.007055928 0.033334393 0.03563447
-0.0041995323 -0.015803562 0.030241378 -0.00029313823 0.035080347 0.01369582 -0.029848274 0.0034802197
0.005427236 -0.019441316 0.00079332263 0.019693779 -0.010858104 0.0071995286 0.019441038 -0.024148174
-0.0147209205 0.020285493 -0.010277858 0.017903445 0.0039231125 -0.012691467 -0.019965053 0.00043515878
-0.001738039 -0.009875765 -0.042963903 -0.009132534 0.02042386 0.031922705 -0.00813361 0.007040055
-0.009934401 -0.0013287775 -0.026102893 -0.0034153052 0.0027253437 0.016242415 0.030140921 -0.02606395
-0.0016699339 0.04613322 -0.002640323 -0.009454488 0.01503373 0.045595173 -0.053620946 -0.0029168066
-0.03701482 -0.0018442562 0.02544117 0.03771911 -0.06076024 -0.012374245 0.0113961715 0.014755299
0.0065521034 -0.018658306 0.0035177623 -0.0027419743 -0.014353876 0.003854131 0.042384032 0.013247855
0.0046139476 0.02026936 0.024405276 0.013228678 -0.013944739 0.008806972 0.010081985 -0.0045746895
-0.0022400974 -0.014248752 -0.00515354 -0.00044808554 0.009256604 0.05091161 0.0256439 -0.0067466605
0.0035518056 0.0053285654 -0.020553622 0.028273946 -0.000622444 0.014608528 -0.0027170114 -0.020338407
0.02257586 0.041560248 -0.016785378 -0.0045733764 -0.029048419 0.011261891 0.0023178372 0.00029106857
-0.01898728 0.00051949185 0.020643637 0.02188687 0.015714493 0.016746942 -0.007984221 0.01360657
0.0018247734 0.0008183023 -0.010576793 0.0029420825 0.025702469 0.022607813 -0.00035320738 -0.021980757
-0.037672408 0.024703842 0.059203286 0.0055265715 0.031590626 0.0034583595 0.010326123 0.012998643
-0.030646103 0.026557393 -0.022005461 -0.03344798 0.028549682 0.047219824 0.046788026 0.0072005833
-0.012633599 0.011552816 -0.020016968 -0.0062660286 -0.010495793 -0.02355612 -0.025963929 -0.03492222
-0.004991889 -0.026896805 -0.007130484 -0.020764858 0.02648982 -0.0028796047 0.01963081 0.003466388
-0.008175097 0.018700624 0.010844234 0.026062699 0.023907142 -0.007718199 0.027643153 0.02891412
00000000: b637 cc3c 1713 05bd 213c 583d 0022 493d
00000010: bf7a 843c 06c9 8a3d 452e 21bd e057 6e3d
00000020: e846 9c3c 3432 ecb9 791a 003d d807 c7bc
00000030: 1094 d6ba 2a92 a1b9 f1f1 223c 67e2 673c
00000040: 6e46 ffbc 9c11 6d3c 79fb f03b 453c a63c
00000050: 0714 2b3c 43b6 c13c 6b8e 7a3c 5449 0c3a
00000060: 161c 71bc e735 0d3c 032c 623a 574d 853c
00000070: af42 b8ba 3d01 3dbc d770 373c 16ea 18bc
00000080: 5511 9c3c 773c 673b dec1 d53b 03ba 8cba
00000090: 5d1a 73bc def7 b2bb a032 98bb 1f2d ea3c
000000a0: 19eb 0f3d 8776 4e3b adc1 743c fbf1 a63c
000000b0: 3f06 2bbc d41d 1e3c b638 e23c 8abe 45bc
000000c0: 1925 2b3c f2f8 f93b 33ac b73b 8e9d 473c
000000d0: 7435 183d f15d ec3c 86a3 aabc c194 3dbb
000000e0: 0ea5 083d 3041 3b3d ab8d 21bb 5d35 d53c
000000f0: 2ab3 023c 41d9 8e3d 0d5d 66b9 61f6 d33a
00000100: 8565 843a 74ae ddba abae 4fbc 0e25 813d
00000110: 51d2 203d 26c4 f23b df7e a9bc 9f41 573c
00000120: 5062 c8bc ebb1 223d 5676 163c 926f cf3c
00000130: 6054 d43c c235 d13c a441 7cba 72a9 8ebc
00000140: e80b 413b 4cc7 033c fddb d739 2fe5 08bb
00000150: 6bbe acbb 4fd1 36bc 8d4d ba3b 23b4 27bc
00000160: 3b30 9ebb 94bd 873c 5953 c6bc daed 99bc
00000170: 8f77 4d3c 836b aabc 62f6 8f3c 3834 3fbb
00000180: 88d2 1a3c 651b 8cbc 835a 26bc 4004 ee3c
00000190: 76ce 8e3a 6a35 e73b a589 083d 73f5 113d
000001a0: 3b9c 89bb 7976 81bc c4bc f73c 59b0 99b9
000001b0: 69b0 0f3d 6f64 603c 5e84 f4bc 6614 643b
000001c0: f5d6 b13b 6543 9fbc fbf6 4f3a d954 a13c
000001d0: 30e6 31bc 06ea eb3b d042 9f3c 64d2 c5bc
000001e0: 0430 71bc c32d a63c 7664 28bc 3faa 923c
000001f0: 748d 803b dfef 4fbc c08d a3bc 0626 e439
00000200: e9ce e3ba f6cd 21bc ebfa 2fbd a0a0 15bc
00000210: f04f a73c 62c1 023d d542 05bc 43b0 e63b
00000220: e6c3 22bc 602a aeba bcd5 d5bc 50d3 5fbb
00000230: ae9b 323b d00e 853c 18ea f63c 1184 d5bc
00000240: afe1 daba 30f6 3c3d 4509 2dbb ffe6 1abc
00000250: 0950 763c 01c2 3a3d a3a1 5bbd e527 3fbb
00000260: da9c 17bd f8ba f1ba 006a d03c 5a7f 1a3d
00000270: bbdf 78bd 58bd 4abc 02b7 3a3c 36c0 713c
00000280: 07b3 d63b 4ed9 98bc 428a 663b b2b2 33bb
00000290: 852c 6bbc 9795 7c3b e19a 2d3d 880d 593c
000002a0: 9930 973b ee0b a63c 93ed c73c 19bd 583c
000002b0: 7978 64bc 1e4b 103c e92e 253c 47e7 95bb
000002c0: 99ce 12bb 9973 69bc 07df a8bb 06ed eab9
000002d0: 03a9 173c b188 503d 2813 d23c 1713 ddbb
000002e0: 69c5 683b 3f9b ae3b 1260 a8bc c39e e73c
000002f0: 822b 23ba 9c58 6f3c e30f 32bb bb9c a6bc
00000300: 03f1 b83c 143b 2a3d 7d81 89bc 43dc 95bb
00000310: f3f6 edbc cb83 383c dbe6 173b 909a 9839
00000320: 368b 9bbc 822e 083a d81c a93c 184c b33c
00000330: aebb 803c e230 893c 40d0 02bc 17ee 5e3c
00000340: 3c2d ef3a 5683 563a 494a 2dbc f4cf 403b
00000350: fc8d d23c 0534 b93c b12e b9b9 fd10 b4bc
00000360: 624e 1abd b65f ca3c 257f 723d 3e18 b53b
00000370: 2c65 013d a5a5 623b e62e 293c 43f8 543c
00000380: 890d fbbc e48e d93c cc44 b4bc c000 09bd
00000390: 06e1 e93c 9369 413d cda4 3f3d dff2 eb3b
000003a0: 28fd 4ebc 0648 3d3c a0fa a3bc 4253 cdbb
000003b0: 8cf6 2bbc c4f8 c0bc 4eb2 d4bc 9a0a 0fbd
000003c0: 0093 a3bb b056 dcbc d6a6 e9bb 101b aabc
000003d0: 2e01 d93c c0b7 3cbb cbd0 a03c 572c 633b
000003e0: d8f0 05bc 0d32 993c 04ac 313c 7181 d53c
000003f0: e9d8 c33c f2e8 fcbb e573 e23c 4edd ec3c

calibrate.blocks.0.3.bias f4 [16]
-0.012437369 0.010695167 0.007143354 -0.0068091736 -0.0025710783 -0.0102663385 -0.014858561 0.026774118
-0.015743123 0.052178346 0.020559436 -0.026773559 -0.008067925 -0.021921795 0.02826682 0.038205285
00000000: 1bc6 4bbc c83a 2f3c cc12 ea3b 7d1f dfbb
00000010: 897f 28bb 2534 28bc 5271 73bc 6555 db3c
00000020: b9f7 80bc f6b8 553d 436c a83c 3954 dbbc
00000030: 552f 04bc 5695 b3bc d18f e73c 257d 1c3d

calibrate.blocks.0.4.weight f4 [16]
0.96680504 0.9718966 0.9935461 0.96712965 0.9235295 0.92942005 0.9600129 0.8981185
0.9748294 1.0014958 0.8881846 0.9319366 0.88964146 0.9293577 0.8967142 0.94127434
00000000: 8980 773f 37ce 783f 0a59 7e3f cf95 773f
00000010: 6e6c 6c3f 79ee 6d3f 68c3 753f 18eb 653f
00000020: 6b8e 793f 0431 803f 1160 633f 6693 6e3f
00000030: 8bbf 633f 63ea 6d3f 108f 653f 5bf7 703f

calibrate.blocks.0.4.bias f4 [16]
-0.0122956 0.0067830915 0.041043747 -0.018666435 -0.006707673 0.00033521533 0.03225884 0.010638846
0.016479034 0.049156696 0.008548496 -0.0028009675 0.01084019 0.033897325 0.027968924 0.020623198
00000000: 7c73 49bc b244 de3b 7d1d 283d 5aea 98bc
00000010: 0acc dbbb d7bf af39 d821 043d 8e4e 2e3c
00000020: 0aff 863c 8858 493d fe0e 0c3c 7090 37bb
00000030: 0d9b 313c ecd7 0a3d 161f e53c fbf1 a83c
