SCI/weights/medium.pt (torch, 43967 bytes, 72 tensors)

enhance.in_conv.0.weight f4 [3, 3, 3, 3]
0	0x3da3c954	0.07997385
1	0xbc8e1e05	-0.017348299
2	0xbbe5f61e	-0.007017865
3	0xbbe930e8	-0.007116426
4	0x3c400c11	0.011721627
5	0x3d3e4cd6	0.046459995
6	0xbc58fa8e	-0.013243331
7	0xbd3d0c53	-0.04615433
8	0x394e1191	0.00019652235
9	0x3d82a86c	0.0637978
10	0xbcd0e43b	-0.025499454
11	0x3c2a0a2e	0.010378404
12	0x3c10c51f	0.00883606
13	0x3d306268	0.043062598
14	0xbd833bf8	-0.064079225
15	0x3bfa5d68	0.0076405294
16	0x3d07aef7	0.033125844
17	0x3aff04fb	0.001945644
18	0xbdcc3801	-0.099716194
19	0x3d40b7c0	0.047050238
20	0x3d0ab172	0.03386063
21	0x3dc39e06	0.09551625
22	0x3dde1fca	0.10845907
23	0x3d672b1c	0.056437597
24	0xbc627db1	-0.0138239125
25	0xbd2f0b44	-0.042735353
26	0xbb0b0754	-0.0021214085
27	0xbcd560d1	-0.026047142
28	0x3d156135	0.036469657
29	0x3c46ece9	0.012141445
30	0xbc55aa2b	-0.0130410595
31	0xbc993a7b	-0.018704643
32	0xbdc420aa	-0.09576543
33	0xbb6d3cc5	-0.0036199552
34	0xbc50b800	-0.0127391815
35	0xbcda0d51	-0.026617678
36	0xbc66b62f	-0.014081522
37	0x3d1845c2	0.0371759
38	0xbb00f0af	-0.0019674709
39	0xbca8da27	-0.020611836
40	0x3e0ba9d6	0.13639006
41	0x3d0b6db0	0.034040153
42	0xbc141452	-0.009038048
43	0x3c395c09	0.011313447
44	0x3d040914	0.03223522
45	0x3d0cc3cf	0.034366425
46	0xbd5945d0	-0.053045094
47	0xbcde681a	-0.027149249
48	0x3b74904d	0.0037317455
49	0x3dad97de	0.08476232
50	0xbd8953b7	-0.067054205
51	0xbb5bffd8	-0.0033569243
52	0xbc1fb27d	-0.009747145
53	0xbccd5261	-0.025063695
54	0x3c06ed07	0.008235223
55	0x3c9c1fd1	0.01905814
56	0x3bc46255	0.0059931674
57	0xbd93e9cf	-0.0722233
58	0xbd4739f9	-0.04863927
59	0xbcdd2be4	-0.026998468
60	0xbce32448	-0.027727261
61	0xbdab37ea	-0.08360274
62	0x3d7bca9e	0.061472528
63	0x3c28bbb3	0.010298657
64	0x3c84b870	0.016201228
65	0x3b42e493	0.0029738292
66	0xbd0fc474	-0.03509946
67	0xbd14b3e9	-0.03630439
68	0x3c4d5971	0.0125335315
69	0xbc59d806	-0.013296133
70	0x3df6baf4	0.12047377
71	0xbd68c228	-0.056825787
72	0xbc077dcf	-0.008269741
73	0xbcde812e	-0.027161207
74	0xbafeda79	-0.0019443772
75	0x3dd30edf	0.10305571
76	0x3ca100b7	0.019653661
77	0x3c867aca	0.016415972
78	0xbc9139f3	-0.017727828
79	0xbcc6f2d6	-0.024285715
80	0x3d71d3c4	0.059039846

enhance.in_conv.0.bias f4 [3]
0	0x3d6f7390	0.05845982
1	0x3d81746f	0.06321036
2	0x3d23e80f	0.04001623

enhance.conv.0.weight f4 [3, 3, 3, 3]
0	0xb9763980	-0.00023481809
1	0xbadd6289	-0.0016890328
2	0xbbfae654	-0.007656852
3	0x3c52224e	0.012825562
4	0x3caf6834	0.021411993
5	0xbaea1f0a	-0.0017862034
6	0x3d1728ef	0.03690427
7	0xbd30ee84	-0.043196216
8	0x3d996796	0.074904606
9	0x3bdab20f	0.0066740583
10	0xbc1b692f	-0.009485527
11	0xbc0cbecb	-0.00859041
12	0x3daa9c84	0.08330634
13	0xbcbd463e	-0.023104783
14	0x3ca4a1d0	0.02009669
15	0x39aacbf2	0.00032576878
16	0xbd939bfa	-0.072074845
17	0xbc1afec5	-0.009460156
18	0x3bf8b478	0.007589873
19	0x3a82b71e	0.0009972786
20	0x3ba2c73f	0.0049675996
21	0x3d81c8b6	0.06337111
22	0xbe02792d	-0.12741537
23	0xbdd87dad	-0.10570846
24	0xb9f4cbba	-0.00046691095
25	0x3ce8508a	0.028358717
26	0xbcc4ab8d	-0.024007583
27	0x3c09e31d	0.008415964
28	0x3c1fe499	0.009759092
29	0x3c85b7cb	0.01632299
30	0xbc096800	-0.008386612
31	0xbd8953c1	-0.06705428
32	0x3c2a2c00	0.010386467
33	0x3daa52fc	0.08316609
34	0x3de431a8	0.11142284
35	0xbcf70fdb	-0.030158928
36	0x3ca0c0e4	0.019623227
37	0x3ce145fc	0.027499191
38	0x3c9a1855	0.01881043
39	0x3d9f73c9	0.07785756
40	0x3d668df7	0.056287732
41	0xbcf440be	-0.029816028
42	0x3d0ba5f5	0.034093816
43	0x3cb54b92	0.022130761
44	0x3bb6e760	0.0055817813
45	0xbc68f7ba	-0.014219219
46	0xbd3efa7f	-0.04662561
47	0xbcb6cf7a	-0.02231573
48	0x3dc8beca	0.09802015
49	0xbd739373	-0.05946679
50	0x3d20926b	0.039202135
51	0x3c825d8b	0.015913745
52	0x3ba8c177	0.005150016
53	0x3c89655c	0.016771965
54	0xbbab08c5	-0.0052195513
55	0xbc07587c	-0.008260842
56	0xbc975fa7	-0.018478228
57	0x3bc654e2	0.0060525993
58	0x3d4b6dbb	0.049665194
59	0xbccaf58e	-0.024775293
60	0x3ccdebce	0.025136854
61	0x3e0146c7	0.12624656
62	0xbccb1235	-0.024788955
63	0xbc0c5e5f	-0.008567422
64	0xbd05917e	-0.032609455
65	0xbca38b08	-0.019963756
66	0x3a1eba73	0.0006055005
67	0xbe1ba4f3	-0.15199642
68	0x3cd0df24	0.025497027
69	0x3c6733ed	0.014111501
70	0x3da90bd8	0.08254212
71	0x3b39d46c	0.0028355373
72	0x3c7dbc4e	0.01548679
73	0x3d1e7bb6	0.0386922
74	0x3d0bb6d0	0.03410989
75	0x3d336566	0.043797873
76	0xbc65a62b	-0.014016668
77	0x3c98c40d	0.018648172
78	0x3c9c5369	0.019082742
79	0x3acf48b0	0.0015814509
80	0x3c6b9ecd	0.014381123

enhance.conv.0.bias f4 [3]
0	0xbaf01343	-0.0018316287
1	0x3ba5d0f5	0.00506031
2	0x3b588cbd	0.003304287

enhance.conv.1.weight f4 [3]
0	0x3f80701d	1.0034214
1	0x3f8525a6	1.0402114
2	0x3f872e43	1.0560993

enhance.conv.1.bias f4 [3]
0	0x3e8b752d	0.27237836
1	0x3e83e394	0.25759566
2	0x3e6f07d2	0.23342827

enhance.conv.1.running_mean f4 [3]
0	0xbc14d810	-0.009084716
1	0x3cc13c9f	0.023588477
2	0x3bc94062	0.006141708

enhance.conv.1.running_var f4 [3]
0	0x349df7b9	2.942377e-07
1	0x356e243e	8.871465e-07
2	0x34f0e855	4.4872527e-07

enhance.blocks.0.0.weight f4 [3, 3, 3, 3]
0	0xb9763980	-0.00023481809
1	0xbadd6289	-0.0016890328
2	0xbbfae654	-0.007656852
3	0x3c52224e	0.012825562
4	0x3caf6834	0.021411993
5	0xbaea1f0a	-0.0017862034
6	0x3d1728ef	0.03690427
7	0xbd30ee84	-0.043196216
8	0x3d996796	0.074904606
9	0x3bdab20f	0.0066740583
10	0xbc1b692f	-0.009485527
11	0xbc0cbecb	-0.00859041
12	0x3daa9c84	0.08330634
13	0xbcbd463e	-0.023104783
14	0x3ca4a1d0	0.02009669
15	0x39aacbf2	0.00032576878
16	0xbd939bfa	-0.072074845
17	0xbc1afec5	-0.009460156
18	0x3bf8b478	0.007589873
19	0x3a82b71e	0.0009972786
20	0x3ba2c73f	0.0049675996
21	0x3d81c8b6	0.06337111
22	0xbe02792d	-0.12741537
23	0xbdd87dad	-0.10570846
24	0xb9f4cbba	-0.00046691095
25	0x3ce8508a	0.028358717
26	0xbcc4ab8d	-0.024007583
27	0x3c09e31d	0.008415964
28	0x3c1fe499	0.009759092
29	0x3c85b7cb	0.01632299
30	0xbc096800	-0.008386612
31	0xbd8953c1	-0.06705428
32	0x3c2a2c00	0.010386467
33	0x3daa52fc	0.08316609
34	0x3de431a8	0.11142284
35	0xbcf70fdb	-0.030158928
36	0x3ca0c0e4	0.019623227
37	0x3ce145fc	0.027499191
38	0x3c9a1855	0.01881043
39	0x3d9f73c9	0.07785756
40	0x3d668df7	0.056287732
41	0xbcf440be	-0.029816028
42	0x3d0ba5f5	0.034093816
43	0x3cb54b92	0.022130761
44	0x3bb6e760	0.0055817813
45	0xbc68f7ba	-0.014219219
46	0xbd3efa7f	-0.04662561
47	0xbcb6cf7a	-0.02231573
48	0x3dc8beca	0.09802015
49	0xbd739373	-0.05946679
50	0x3d20926b	0.039202135
51	0x3c825d8b	0.015913745
52	0x3ba8c177	0.005150016
53	0x3c89655c	0.016771965
54	0xbbab08c5	-0.0052195513
55	0xbc07587c	-0.008260842
56	0xbc975fa7	-0.018478228
57	0x3bc654e2	0.0060525993
58	0x3d4b6dbb	0.049665194
59	0xbccaf58e	-0.024775293
60	0x3ccdebce	0.025136854
61	0x3e0146c7	0.12624656
62	0xbccb1235	-0.024788955
63	0xbc0c5e5f	-0.008567422
64	0xbd05917e	-0.032609455
65	0xbca38b08	-0.019963756
66	0x3a1eba73	0.0006055005
67	0xbe1ba4f3	-0.15199642
68	0x3cd0df24	0.025497027
69	0x3c6733ed	0.014111501
70	0x3da90bd8	0.08254212
71	0x3b39d46c	0.0028355373
72	0x3c7dbc4e	0.01548679
73	0x3d1e7bb6	0.0386922
74	0x3d0bb6d0	0.03410989
75	0x3d336566	0.043797873
76	0xbc65a62b	-0.014016668
77	0x3c98c40d	0.018648172
78	0x3c9c5369	0.019082742
79	0x3acf48b0	0.0015814509
80	0x3c6b9ecd	0.014381123

enhance.blocks.0.0.bias f4 [3]
0	0xbaf01343	-0.0018316287
1	0x3ba5d0f5	0.00506031
2	0x3b588cbd	0.003304287

enhance.blocks.0.1.weight f4 [3]
0	0x3f80701d	1.0034214
1	0x3f8525a6	1.0402114
2	0x3f872e43	1.0560993

enhance.blocks.0.1.bias f4 [3]
0	0x3e8b752d	0.27237836
1	0x3e83e394	0.25759566
2	0x3e6f07d2	0.23342827

enhance.blocks.0.1.running_mean f4 [3]
0	0xbc14d810	-0.009084716
1	0x3cc13c9f	0.023588477
2	0x3bc94062	0.006141708

enhance.blocks.0.1.running_var f4 [3]
0	0x349df7b9	2.942377e-07
1	0x356e243e	8.871465e-07
2	0x34f0e855	4.4872527e-07

enhance.out_conv.0.weight f4 [3, 3, 3, 3]
0	0xbdd4a52b	-0.10383066
1	0xbe2fae5a	-0.17156354
2	0x3c8e7c22	0.017393176
3	0xbdea49c7	-0.11439853
4	0xbe3e37b5	-0.18575938
5	0xbd0433ba	-0.032275893
6	0x3c67f63d	0.014157829
7	0x3c3473fe	0.011013983
8	0xbd1c9a56	-0.038233124
9	0x3de30b69	0.11086161
10	0xbe18a7d7	-0.14907776
11	0x3cc611ce	0.024178412
12	0x3e0d4351	0.1379521
13	0x3e10d4bb	0.1414365
14	0xbdc4a1fe	-0.0960121
15	0xbcb36f0b	-0.021903535
16	0xbdd64b42	-0.10463573
17	0xbcd9b7cd	-0.0265769
18	0x3d442691	0.047888342
19	0x3bcccd65	0.006250071
20	0x3ca943e4	0.020662256
21	0xbe6eef40	-0.23333454
22	0x3d850753	0.064955376
23	0xbd5cc2bb	-0.053896647
24	0x3d3ad475	0.04561277
25	0x3e11b1f2	0.14228037
26	0xbce16ea4	-0.027518578
27	0xbccfff0d	-0.025390172
28	0x3e6afa2c	0.22946995
29	0xbd98668f	-0.074414365
30	0xbdd1cce5	-0.10244159
31	0xbe4f0496	-0.20216593
32	0xbdfd35f2	-0.12363805
33	0xbc2dcef5	-0.010608424
34	0xbbc5cd02	-0.0060364017
35	0xbc12e195	-0.008964916
36	0x3c9c1671	0.01905367
37	0x3cb513dd	0.022104198
38	0xbdf9a517	-0.121896915
39	0x3cd991c2	0.02655876
40	0xbd427f61	-0.04748476
41	0xbe024613	-0.12722044
42	0xbc6fe3a1	-0.014641673
43	0xbd82b309	-0.063818045
44	0xbd07ad02	-0.033123977
45	0x3d94366e	0.07236944
46	0xbe14dede	-0.14538142
47	0xbd85c06f	-0.065308444
48	0x3c4f8645	0.01266629
49	0x3deb4637	0.11488002
50	0xbad12d23	-0.0015958886
51	0x3d063365	0.032763857
52	0x3da1ea2a	0.079059914
53	0x3bb95af1	0.005656593
54	0xbd570099	-0.052490804
55	0x3d3f34a6	0.04668107
56	0xbcf18c2d	-0.029485786
57	0xbe047d5c	-0.12938446
58	0x3de64810	0.112442136
59	0xbdab78dd	-0.08372662
60	0xbcf48665	-0.02984924
61	0xbca17775	-0.019710282
62	0x3cdcf738	0.026973352
63	0x3d93ec5a	0.07222815
64	0xbe20f576	-0.15718636
65	0xbdea40ab	-0.11438116
66	0x3e02ddcf	0.12779926
67	0xbda5043a	-0.08057447
68	0x3c8c9d8c	0.017164968
69	0x3ccc9bda	0.02497666
70	0x3daa26de	0.083081946
71	0xbc4b42a8	-0.012406029
72	0x3d0ddc7f	0.03463411
73	0xbe2b1699	-0.16707839
74	0xbd89a260	-0.06720424
75	0xbdd68a8d	-0.10475645
76	0xbc422313	-0.011849183
77	0x3ce8a127	0.028397156
78	0xbd232aec	-0.039835855
79	0xbdd07d32	-0.10180129
80	0x3d18b1f8	0.0372791

enhance.out_conv.0.bias f4 [3]
0	0xbe21d51d	-0.15803953
1	0xbe89b5c9	-0.26896504
2	0xbe7eb15e	-0.24872348

calibrate.in_conv.0.weight f4 [16, 3, 3, 3]
0	0x3d158924	0.03650774
1	0xbcc7ddde	-0.024397787
2	0x3bd40520	0.0064703375
3	0x3c4ae306	0.012383228
4	0xbbc2adc7	-0.005941126
5	0x3a61035e	0.00085835706
6	0x3b8e0906	0.004334572
7	0x3cefb208	0.029259697
8	0x3c1f79ff	0.009733676
9	0xbc1d2944	-0.009592358
10	0x3b83867c	0.0040138345
11	0x3d13c5ab	0.036077183
12	0x3cc55bf4	0.024091698
13	0xbc0e8532	-0.008698748
14	0x3d184de4	0.037183657
15	0xbb3eddad	-0.0029123828
16	0x3af66d7c	0.001880094
17	0x3b4b05b3	0.0030978739
18	0x3ceb6367	0.028733922
19	0x3cdc66fc	0.026904576
20	0xbcbc76e5	-0.023005912
21	0xbce40846	-0.027835976
22	0x3cd951ea	0.026528317
23	0x3c6e0acc	0.014528941
24	0x3bd4f011	0.0064983447
25	0xbac19171	-0.0014768076
26	0xbabfa10b	-0.0014620138
27	0xbb7c507a	-0.0038500116
28	0x3a9fd42d	0.0012193971
29	0x3b729ba3	0.0037019036
30	0xbbcf61f8	-0.0063288175
31	0xbc9e9d12	-0.019362006
32	0xbb3b3ebd	-0.002857133
33	0xbc1cae23	-0.009563002
34	0xbc4d0c53	-0.012515145
35	0xbc13304b	-0.008983682
36	0xbcb79e02	-0.022414211
37	0x3bcde46b	0.006283333
38	0xbabeb9e9	-0.0014551255
39	0xbc2ecd62	-0.010669084
40	0x3c2470a2	0.010036619
41	0x3c0c23f2	0.008553492
42	0x3bff73e4	0.0077957977
43	0xbc1ec4cf	-0.0096904775
44	0xbc932918	-0.017963931
45	0xbc2686cf	-0.010163977
46	0xbcd0bb78	-0.025480017
47	0xbcd00192	-0.025391374
48	0x3c98634e	0.01860204
49	0x3c440ee3	0.01196644
50	0xbd7da825	-0.061927933
51	0x3c8998c8	0.016796485
52	0xbcbd00ef	-0.023071734
53	0xbc5521d9	-0.013008558
54	0x3afe8272	0.0019417538
55	0x3bcf7d11	0.0063320477
56	0xbaa80e52	-0.0012821651
57	0x3b3ed9dc	0.0029121554
58	0xbc47ef62	-0.012203069
59	0xbe30358e	-0.1720793
60	0xbb56f5b8	-0.0032800268
61	0x3b8cf274	0.0043013636
62	0x3a670035	0.00088119815
63	0xbbdfb145	-0.006826552
64	0x3c197c63	0.009368035
65	0x3b9f462a	0.004860659
66	0x3bf1f66e	0.007384113
67	0x3b9d7eef	0.0048063914
68	0xbc37abd7	-0.011210403
69	0xbaa0a1ce	-0.0012255253
70	0x3b4a9770	0.0030913018
71	0x3ac574da	0.0015064732
72	0x3b960825	0.0045786076
73	0xbc651623	-0.013982329
74	0x3babc8d2	0.0052424455
75	0xbbec20a9	-0.007206042
76	0x3c40825a	0.011749828
77	0xbb2d3920	-0.0026431754
78	0x3b15b06d	0.0022840754
79	0xbb4b716e	-0.003104295
80	0xbb56c6b4	-0.0032772245
81	0xbcc9a137	-0.024613006
82	0xbc23bca8	-0.00999371
83	0xbc80c7ca	-0.015720267
84	0xbc26bb03	-0.010176423
85	0x3c786326	0.015160358
86	0x3d9b8fa2	0.07595755
87	0x3c6ab620	0.014325649
88	0xbb411370	-0.0029461049
89	0x3cb6b27c	0.022301905
90	0x3cce6e0c	0.025198959
91	0xbd75b45a	-0.05998645
92	0x3c12d514	0.008961935
93	0xbc7e32b6	-0.01551502
94	0x3c1f6b1f	0.0097301295
95	0x3cf12dfb	0.02944087
96	0x3ba38036	0.004989649
97	0xbd2313b4	-0.039813712
98	0xbcb9e0f2	-0.02269027
99	0x3d3dabd3	0.046306442
100	0x3dada594	0.08478847
101	0x3a8e2ac9	0.0010846491
102	0x3d85b93b	0.065294705
103	0xbc16507c	-0.009174462
104	0xbba87604	-0.0051410217
105	0xbb4aa692	-0.0030922038
106	0xbba002a6	-0.004883128
107	0x3b165c35	0.0022943143
108	0x3d04a489	0.032383475
109	0x3c035d6e	0.008017881
110	0xbbc4794c	-0.005995905
111	0xbd0de408	-0.034641296
112	0x3c72b3c6	0.014813369
113	0x39ab7899	0.00032705514
114	0xbc722f0f	-0.014781727
115	0xbc1bf130	-0.009517953
116	0x3aefaf9e	0.0018286591
117	0x3c001476	0.007817378
118	0x3d81729d	0.06320689
119	0x3ca8dc55	0.020612875
120	0x3c77077d	0.015077469
121	0x3d1cf401	0.038318638
122	0x3c30d3d5	0.010792692
123	0x3ce0c13d	0.027435893
124	0xbc8a0ed1	-0.016852768
125	0x3bcf4971	0.0063258936
126	0x3d0d5741	0.03450704
127	0xbb5b01de	-0.003341786
128	0x3ba01777	0.0048856097
129	0xbc919dea	-0.017775495
130	0xbbb10516	-0.0054022176
131	0xbbfcea66	-0.007718372
132	0x3ba8abd3	0.005147436
133	0xbc8f6e94	-0.017508782
134	0x3c3e2d7d	0.011607525
135	0x3bc4203b	0.0059852875
136	0xbe193176	-0.14960274
137	0x39d8d1b7	0.0004135498
138	0x398f446c	0.00027326064
139	0x3b93bda7	0.0045086923
140	0x398169ba	0.0002468357
141	0x3b4fac18	0.003168827
142	0x3afb0586	0.0019151426
143	0x3a214371	0.0006151712
144	0x3b95422d	0.004555008
145	0xbce7980d	-0.028270746
146	0xbb0e5104	-0.002171577
147	0xba4b6b05	-0.00077597826
148	0x3c2842aa	0.0102698
149	0x3ad2fd32	0.0016097187
150	0x3a727ef7	0.00092504866
151	0x391ffdf2	0.00015258024
152	0x3ad275f7	0.0016056885
153	0xbb66b5af	-0.0035203507
154	0x39f9307e	0.0004752911
155	0xbb457ddd	-0.0030134835
156	0xbb8493b7	-0.0040459293
157	0x3b8fca03	0.0043880953
158	0xbab1c263	-0.001356196
159	0x388793c4	6.464825e-05
160	0xbb360175	-0.0027771865
161	0x39f3c257	0.00046493366
162	0x3a7c1433	0.0009616047
163	0xb9999b35	-0.00029298072
164	0x3ad2ef4b	0.0016093043
165	0x3b21eb99	0.0024707078
166	0xbb891760	-0.0041836947
167	0xb9830bc0	-0.00024995022
168	0x3a3ecbf9	0.0007278319
169	0x3bdcb0c4	0.0067349393
170	0x3b6951a3	0.0035601638
171	0x3b9587e0	0.0045633167
172	0x3a9836da	0.0011613027
173	0x3b6c38cc	0.0036044596
174	0x399a0589	0.00029377293
175	0xb9c75c6a	-0.00038025092
176	0xba9e250a	-0.0012065482
177	0xbb4bb490	-0.0031082965
178	0xbb55a391	-0.0032598714
179	0x3b5b4266	0.0033456325
180	0x3bb67964	0.00556867
181	0x3a9a1440	0.0011755303
182	0x3af6029d	0.0018769089
183	0x3b45b974	0.0030170353
184	0xbe28a737	-0.16470037
185	0x3baff0be	0.005369275
186	0x3a0e03fb	0.0005417463
187	0x3aded959	0.001700203
188	0xbb2dd6b2	-0.0026525673
189	0xba440e7f	-0.0007478967
190	0x3b92665c	0.0044677686
191	0xbdaf180a	-0.08549507
192	0x3bac9732	0.0052670473
193	0x3b21836d	0.0024644986
194	0xbc1f6092	-0.009727614
195	0x3b9b6505	0.004742267
196	0xbc17f73e	-0.009275256
197	0xbbeb925d	-0.0071890787
198	0xbbdd01fa	-0.0067446204
199	0xbb50d2e6	-0.0031863987
200	0xbb8845a9	-0.0041586948
201	0x3af8f38e	0.0018993483
202	0xbb249298	-0.002511179
203	0xbcd09313	-0.025460755
204	0x3b284f7f	0.002568215
205	0x3b9deca1	0.004819468
206	0xbd027b35	-0.03185578
207	0x39b1059d	0.00033764253
208	0xbb54ee14	-0.0032490538
209	0xbb9281c0	-0.004471034
210	0xbbbbecbb	-0.0057350076
211	0x3c18b9d0	0.009321645
212	0x39f1a4e9	0.0004608997
213	0xbb41bebb	-0.0029563147
214	0xba617ac8	-0.00086013647
215	0xbc268e2b	-0.010165731
216	0x3b8a1177	0.0042135078
217	0x3b877e58	0.0041349344
218	0x3c97cea6	0.018531155
219	0xbb5d2de7	-0.0033749284
220	0xba9b9952	-0.0011871255
221	0x3c0aced2	0.008472161
222	0x3c3e2855	0.011606296
223	0x3ce68825	0.02814109
224	0x3c3a6b20	0.01137808
225	0xba6f0be8	-0.00091189006
226	0x3ad8ae5f	0.0016531459
227	0x3bca7da5	0.006179529
228	0xbc045eee	-0.008079274
229	0x3ce99d8f	0.028517513
230	0xbce421cf	-0.027848152
231	0x3b0b63b2	0.002126914
232	0xbd2c0e6f	-0.042005952
233	0xbbc3817d	-0.005966364
234	0xbc4e2d49	-0.012584039
235	0x3c4284b9	0.011872464
236	0x3b74e959	0.0037370531
237	0x3c4552e9	0.012043693
238	0x3d091b9f	0.033473607
239	0x3d0863aa	0.033298172
240	0x3b2d108b	0.0026407565
241	0xbd11b146	-0.03556945
242	0x3d0f54c5	0.034992952
243	0xbb32f1b4	-0.002730471
244	0xbb689861	-0.0035491216
245	0x3aeaa660	0.0017902367
246	0xbc5a3f44	-0.013320748
247	0xbc7440a4	-0.01490799
248	0xbc3077ee	-0.010770781
249	0x3bb3f230	0.0054915175
250	0xbbe408e6	-0.0069590686
251	0xbc4bf836	-0.012449315
252	0x3c4ce4b9	0.012505704
253	0xbd305c5c	-0.04305683
254	0x3d0ae0ac	0.03390567
255	0xbc02eeb1	-0.007991479

calibrate.in_conv.0.bias f4 [16]
0	0xba948297	-0.0011330423
1	0x3bb11b44	0.0054048616
2	0x3c8f12fd	0.017465109
3	0x3ca5d512	0.020243201
4	0x3c41d0d5	0.011829575
5	0x3ba4f301	0.005033851
6	0x3cb05f2e	0.02152976
7	0x3c09f5b1	0.008420394
8	0x3c4a8cb7	0.012362651
9	0x3b8e1701	0.0043362384
10	0x3d38fd59	0.045163486
11	0x3d2fec1f	0.042949792
12	0x3ca67ad2	0.020322237
13	0x3c8c6663	0.017138666
14	0x3bc50318	0.0060123317
15	0x3bf4f7f2	0.0074758464

calibrate.in_conv.1.weight f4 [16]
0	0x3f77c6a1	0.9678746
1	0x3f33243e	0.69977176
2	0x3f312807	0.692017
3	0x3f788de3	0.970915
4	0x3f6e801e	0.9316424
5	0x3f3016e1	0.6878491
6	0x3f513c32	0.81732476
7	0x3f2e74d8	0.6814704
8	0x3f742244	0.95364785
9	0x3f0abc46	0.5419353
10	0x3f72d21f	0.9485187
11	0x3f66a681	0.90097815
12	0x3f72a8ab	0.94788617
13	0x3f5a41f2	0.85256875
14	0x3f4550b6	0.7707628
15	0x3f402bc3	0.75066775

calibrate.in_conv.1.bias f4 [16]
0	0x3d5f0d6f	0.05445617
1	0x3d10599a	0.0352417
2	0x3d50a155	0.05093511
3	0x3d9e1f3a	0.077208
4	0x3d8eeaf8	0.069784105
5	0x3d76fc7e	0.06029939
6	0x3d9bb835	0.07603494
7	0x3d62229c	0.055208787
8	0x3d8844f7	0.06653779
9	0x3d3efd5e	0.04662835
10	0x3dba5ae7	0.090993695
11	0x3da9a066	0.08282547
12	0x3d7c2aba	0.061564185
13	0x3d03b733	0.032157134
14	0x3d5b74cf	0.053578194
15	0x3d0c14f8	0.034199685

calibrate.in_conv.1.running_mean f4 [16]
0	0x3c2dbb29	0.0106037045
1	0xbb848dfe	-0.004045247
2	0xbc8475d8	-0.016169474
3	0x3c8752b5	0.01651893
4	0x3c3f9702	0.011693718
5	0xbb978c93	-0.004624912
6	0xbbc313f5	-0.005953307
7	0xbc7341dc	-0.014847245
8	0x3c17cd37	0.009265236
9	0xbc8da65f	-0.017291246
10	0x3c669229	0.014072933
11	0x3c146dc5	0.009059374
12	0x3c811f0d	0.015761876
13	0xbba6b771	-0.005087786
14	0xbbabe987	-0.0052463445
15	0xbb65df10	-0.0035075583

calibrate.in_conv.1.running_var f4 [16]
0	0x3804967a	3.1611395e-05
1	0x3743e47c	1.1676104e-05
2	0x38cdb142	9.8081786e-05
3	0x3902085c	0.0001240088
4	0x38683ab5	5.5367786e-05
5	0x376c8198	1.409687e-05
6	0x3819717c	3.6583733e-05
7	0x386b6541	5.6122666e-05
8	0x38045c5b	3.1557265e-05
9	0x38c53b08	9.4046874e-05
10	0x391322ee	0.00014032025
11	0x37dfd06f	2.6680731e-05
12	0x389e84bb	7.55875e-05
13	0x377b6d4b	1.4986213e-05
14	0x370af1c9	8.281736e-06
15	0x36ec350b	7.039523e-06

calibrate.convs.0.weight f4 [16, 16, 3, 3]
0	0x3c22239a	0.009896183
1	0xbb17b4b9	-0.002314849
2	0xbc499c6d	-0.012305361
3	0xbca8727e	-0.020562407
4	0xbd3839a6	-0.044976853
5	0x3d405357	0.04695448
6	0x3d7765bf	0.060399767
7	0xbce1c84a	-0.027561326
8	0xbd36ae01	-0.044599537
9	0x3bb0a66f	0.005390934
10	0x3c64d18f	0.013965978
11	0xbd8d8177	-0.06909459
12	0x3d67cc33	0.056591224
13	0xbd126fe4	-0.03575124
14	0xbdbfbdcb	-0.09362372
15	0x3d060178	0.032716244
16	0x3d0bedbc	0.034162268
17	0x3c8d46dd	0.017245704
18	0x3cff8a8f	0.031194
19	0x3cafce9b	0.021460822
20	0x3c7c316b	0.015392642
21	0x3c2df39b	0.010617162
22	0xbd0f687b	-0.03501175
23	0x3c9e902e	0.01935586
24	0x3aefee2c	0.0018305234
25	0x3cc98acd	0.024602318
26	0xbb46b157	-0.0030318105
27	0x3b1e48eb	0.002415235
28	0x3ce0f74f	0.027461676
29	0x3a1e78bd	0.0006045213
30	0x3b61363f	0.0034364609
31	0xbb807e6f	-0.003921322
32	0xbd835de4	-0.064143926
33	0x3d092d1b	0.03349028
34	0xbdbd4c73	-0.09243097
35	0xbd6f9ded	-0.05850022
36	0xbc875878	-0.016521677
37	0x3c296889	0.0103398645
38	0xbc8c5fb2	-0.017135475
39	0x3c975004	0.018470772
40	0x3c3f45e4	0.011674378
41	0x3cf9fa62	0.0305149
42	0xbcb25b8f	-0.021772174
43	0xbc6b576c	-0.014364105
44	0xbd9537e6	-0.072860524
45	0xbbb970d1	-0.0056592007
46	0xbbc48ede	-0.0059984764
47	0x3c527ff1	0.012847886
48	0xbc2230ad	-0.0098993005
49	0xbd76686f	-0.06015819
50	0xb9e1c600	-0.00043062866
51	0x3d19d935	0.03756066
52	0x3b0dd741	0.0021643194
53	0x3d3919cc	0.045190617
54	0x3ce71b2e	0.028211202
55	0xbb46d077	-0.0030336657
56	0x3cfb2d79	0.030661331
57	0xbc060ccb	-0.008181761
58	0x3e18ead3	0.14933328
59	0xbba8a2fb	-0.005146382
60	0x3c1c6baa	0.0095471535
61	0xbc9ee7b0	-0.019397587
62	0xbc54b382	-0.012982251
63	0x3c9d7241	0.01921952
64	0xbcc2f885	-0.023800144
65	0x3c23f1f9	0.010006421
66	0xbc88e5f5	-0.016711215
67	0xbdd6f465	-0.10495833
68	0xba01bec8	-0.0004949388
69	0xbac2cf9b	-0.0014862897
70	0xbcc58e71	-0.024115773
71	0x3b59aa42	0.0033213054
72	0xbd8beaf2	-0.06831922
73	0x3dbda126	0.09259252
74	0x3c0b1d8f	0.008490934
75	0xbdabf84b	-0.083969675
76	0xbd8cdfc0	-0.068786144
77	0xba00ed20	-0.0004918147
78	0xbc2fd92b	-0.010732929
79	0xbc9e7672	-0.019343589
80	0x3d6f62fc	0.05844401
81	0xbc48b156	-0.012249311
82	0xbd0da082	-0.0345769
83	0xbca4c3ea	-0.02011295
84	0x3c007edb	0.007842745
85	0x3b024936	0.0019880063
86	0x3d12add6	0.035810314
87	0x3d03bc23	0.032161843
88	0xbb4d9cc9	-0.0031373969
89	0xbc4fc22d	-0.012680572
90	0xbcc06d60	-0.023489654
91	0x3ccc29b2	0.024922226
92	0xbc456db8	-0.012050085
93	0x3c3c6e35	0.011500885
94	0x3d2f21a7	0.042756703
95	0xbaefc74d	-0.0018293649
96	0xbced31f8	-0.028954491
97	0xbd9b8c77	-0.07595151
98	0xbd8c7e10	-0.06859982
99	0x3c9c90f5	0.01911209
100	0xbd26782d	-0.040641952
101	0x3cf8ce45	0.030371794
102	0xb8ace1f9	-8.24369e-05
103	0x3ba81270	0.005129151
104	0x3d2a5376	0.0415835
105	0x3c4cc2c7	0.01249761
106	0x3ae6e70f	0.0017616468
107	0x3d8a6604	0.06757739
108	0x3c76ed43	0.015071216
109	0x3a431e08	0.00074431347
110	0x3cc81583	0.02442432
111	0xbcfcb482	-0.030847792
112	0x3d0836c0	0.03325534
113	0xbc66cd18	-0.014086984
114	0x3c8a25ac	0.016863666
115	0x3d3fb5f1	0.046804372
116	0xbd24b683	-0.04021312
117	0x3af1a3e9	0.001843569
118	0xbaca0eb1	-0.0015415755
119	0x3c41acb5	0.011820962
120	0x3bdf7b09	0.006820087
121	0x3a643716	0.0008705718
122	0x3ab2b9ac	0.0013635657
123	0x3b94498f	0.0045253704
124	0x3b66bfe9	0.0035209602
125	0x3c0aa801	0.008462907
126	0x3d65bc50	0.056087792
127	0x3d458e98	0.04823169
128	0xbd23da09	-0.040002856
129	0xbd3674c5	-0.044544954
130	0x3cdc0027	0.026855541
131	0x3bbcb505	0.005758884
132	0xbcc3caf8	-0.023900494
133	0xbd653c7f	-0.055965897
134	0xbcb86331	-0.022508236
135	0x3b0a819b	0.002113438
136	0xbc54c417	-0.012986205
137	0x3bd8f687	0.006621185
138	0xbb4f1b0f	-0.0031601822
139	0xbdae9c93	-0.08525958
140	0x3ca5ed0e	0.020254638
141	0x3ad5bfd7	0.0016307783
142	0xbcb56c44	-0.022146352
143	0x3c3ebda1	0.011641891
144	0x3cb3a063	0.021927064
145	0xbcd99bc5	-0.026563535
146	0xbcfad12c	-0.030617319
147	0x3cad5203	0.02115727
148	0xbc3578ae	-0.011076136
149	0x3b020a55	0.0019842584
150	0xbb839a0a	-0.0040161656
151	0x3cc468c9	0.023975747
152	0xbd0e9b41	-0.03481603
153	0xbba8257f	-0.005131423
154	0xbc527aa7	-0.012846625
155	0x3c988109	0.018616216
156	0xbab220cf	-0.00135901
157	0x3d7c0891	0.061531607
158	0x3cb64d67	0.022253705
159	0xbcc8dd31	-0.024519535
160	0x3a46f816	0.0007590068
161	0xbc272d5d	-0.010203687
162	0x3cf90c8e	0.030401494
163	0x3a072a30	0.0005156128
164	0x3bf1ac73	0.007375294
165	0x3e00f8b9	0.1259488
166	0x3d3c52b0	0.045977294
167	0x3bb7f77a	0.0056142183
168	0x3b60f3d9	0.0034325032
169	0x3bc20907	0.0059214863
170	0xbcf3ff55	-0.029784838
171	0xbce1b2d4	-0.027551092
172	0x3bb699c6	0.0055725304
173	0x3bd1083b	0.006379155
174	0xbd007145	-0.031358022
175	0xbc1cf5ea	-0.009580115
176	0xbc3e055e	-0.011597959
177	0x3b591cf3	0.0033128827
178	0x3cf9d3ab	0.030496439
179	0x3c82551e	0.015909728
180	0xbc882c34	-0.01662264
181	0x3b8a2931	0.004216336
182	0x3d0560eb	0.03256313
183	0xbb8fa071	-0.00438314
184	0x3c43043c	0.011902865
185	0x3d304dc9	0.04304293
186	0xbb26cb14	-0.0025450634
187	0xbc78e99e	-0.015192417
188	0xbc48bb30	-0.01225166
189	0x3bd64580	0.0065390468
190	0xbbbdd92f	-0.0057937126
191	0x3b939ecd	0.0045050145
192	0x3bf3c981	0.0074397926
193	0xbd0dd731	-0.03462905
194	0x3ccb1049	0.024788039
195	0x3b585d6e	0.0033014673
196	0x3e0ac3f8	0.13551319
197	0xbc8ffed0	-0.017577559
198	0x3c5a8cb4	0.01333921
199	0xbc2d9403	-0.010594371
200	0xbbaf9697	-0.005358528
201	0xbbbf3ee4	-0.0058363546
202	0x3cf9531b	0.030435136
203	0xbbd1e079	-0.006404933
204	0x3d08dcda	0.033413745
205	0xbc210879	-0.00982868
206	0xbcc91e9a	-0.024550725
207	0x3d23bc2a	0.03997437
208	0x3b4d96e0	0.0031370446
209	0xbcc5836f	-0.024110524
210	0x3cbc1dec	0.022963487
211	0xbce6dd45	-0.028181681
212	0xbc1b125f	-0.009464829
213	0x3ddf8f47	0.10916
214	0xbadf07a6	-0.0017015829
215	0xbd1581d3	-0.036500763
216	0x3c0d163d	0.008611259
217	0xbcd82eaf	-0.026389448
218	0xbb88efaa	-0.004178961
219	0xbc527ef0	-0.012847647
220	0x3c8dbbb9	0.017301427
221	0x3c9189f0	0.017765969
222	0xbbc0c820	-0.0058832318
223	0x3b85df7d	0.00408548
224	0xb88af3fd	-6.625799e-05
225	0x3b474f90	0.0030412413
226	0xbc98c14a	-0.018646855
227	0xbd5b75cc	-0.053579137
228	0x3cc3dc56	0.023908775
229	0x3b5f695c	0.0034089899
230	0xbc223514	-0.00990035
231	0xbd0ec31d	-0.034854043
232	0xbc0ce526	-0.008599555
233	0xbc2eaa6e	-0.010660751
234	0x3c1e30c3	0.00965518
235	0x3c426455	0.011864741
236	0xbcc1e1f3	-0.023667311
237	0x3caad05d	0.020851308
238	0x3d98d2ea	0.07462104
239	0xbd1028c0	-0.035195112
240	0x3cbbf50d	0.022943998
241	0x3c22beeb	0.009933214
242	0xbbf0fdab	-0.0073544583
243	0xbc69a062	-0.01425943
244	0x3ccaf720	0.024776042
245	0xbc8743d0	-0.016511828
246	0xbb55758f	-0.003257129
247	0xbd2898e6	-0.04116144
248	0x3c2cdcb0	0.010550663
249	0xbb7e2715	-0.003878062
250	0x3d15fed2	0.03661997
251	0x3a662ae9	0.0008780198
252	0xbd3d4245	-0.046205778
253	0x3c986744	0.018603928
254	0x3b056730	0.0020355694
255	0x3c386835	0.011255314

calibrate.convs.0.bias f4 [16]
0	0xbd4de1ff	-0.050264355
1	0xbbf6145f	-0.0075097526
2	0xbd814b94	-0.063132435
3	0x3babca10	0.0052425936
4	0xbcc1e560	-0.023668945
5	0xbd9904d1	-0.07471622
6	0xbc80f287	-0.015740646
7	0xbc618bda	-0.013766253
8	0x3cd6f95d	0.026241953
9	0xbcad3acd	-0.021146202
10	0x3bbb94ae	0.005724511
11	0xbd35ab12	-0.0443526
12	0x3c9b1874	0.018932559
13	0x3cabcd38	0.02097188
14	0xbb9f8191	-0.0048677404
15	0xbdbf4028	-0.09338409

calibrate.convs.1.weight f4 [16]
0	0x3f578b3e	0.8419684
1	0x3f3cc9f1	0.7374564
2	0x3f159e98	0.5844512
3	0x3f00c166	0.502951
4	0x3f185546	0.59505117
5	0x3f60efc4	0.87865853
6	0x3f2931e9	0.6609178
7	0x3f1ad873	0.60486525
8	0x3f1531ac	0.5827892
9	0x3f21320a	0.6296698
10	0x3f06f28c	0.5271385
11	0x3f53bcd6	0.82710016
12	0x3f154b9c	0.58318496
13	0x3f2d3d8c	0.6767204
14	0x3f16012b	0.5859553
15	0x3f34985d	0.7054499

calibrate.convs.1.bias f4 [16]
0	0x3cd801cb	0.026368042
1	0x3d0e11c0	0.034684896
2	0x3cfd9645	0.030955443
3	0x3ca7fe63	0.020507043
4	0x3ce19046	0.027534615
5	0xbb99c68a	-0.004692857
6	0x3c1cb333	0.009564209
7	0x3b8243a3	0.003975348
8	0x3cb935d5	0.022608677
9	0xbba73f5d	-0.005103989
10	0x3ceb3cc2	0.028715495
11	0xbb395640	-0.0028280169
12	0x3cb1907c	0.02167534
13	0x3bf32744	0.0074204523
14	0x3cb134c0	0.021631598
15	0x3bc6ee48	0.006070886

calibrate.convs.1.running_mean f4 [16]
0	0xbe64d380	-0.22346306
1	0x3f1d0dc5	0.61349136
2	0x3f1b6022	0.6069356
3	0x3e4a2c0d	0.19743367
4	0xbe836fde	-0.25671285
5	0x3f0bd873	0.5462715
6	0x3e0f1da5	0.13976152
7	0x3e9a9649	0.30192783
8	0x3f0c8224	0.5488608
9	0x3f2949ec	0.6612842
10	0xbddd9756	-0.10819881
11	0x3f29a816	0.66272104
12	0x3ef3c6fa	0.47612745
13	0xbf27de27	-0.6557335
14	0xbe07bb17	-0.13254963
15	0x3f329ed7	0.6977362

calibrate.convs.1.running_var f4 [16]
0	0x3e01937a	0.12653914
1	0x3e9212c2	0.28529936
2	0x3e5b910f	0.21442054
3	0x3e790c8c	0.24321193
4	0x3e72eb36	0.23722538
5	0x3e833ace	0.25630802
6	0x3e17a928	0.14810622
7	0x3e2bb780	0.16769218
8	0x3ec20232	0.378923
9	0x3f29e149	0.6635938
10	0x3eb1464a	0.3462394
11	0x3e3eacbc	0.1862058
12	0x3e912689	0.28349712
13	0x3f14e947	0.5816845
14	0x3efde11e	0.49585813
15	0x3e3c1ef5	0.18371184

calibrate.convs.3.weight f4 [16, 16, 3, 3]
0	0xbce54533	-0.027987098
1	0xbd2806c1	-0.041022066
2	0x3dcb5f92	0.09930338
3	0x3d748c57	0.05970415
4	0xbc98fa4e	-0.018674042
5	0x3d21e31c	0.03952323
6	0xbcf49811	-0.029857667
7	0x3c021f4b	0.007942031
8	0x3d313a19	0.043268297
9	0xbcada1a6	-0.021195244
10	0x3d3c6b25	0.04600062
11	0x3c6a2e91	0.014293329
12	0xbc0a4335	-0.008438875
13	0x3c9085e0	0.017641962
14	0x3c2a2d53	0.010386783
15	0x3c48099b	0.012209321
16	0xbc74fd9e	-0.014953045
17	0x3c48b670	0.012250528
18	0x3ce0924c	0.02741351
19	0x3d2283a5	0.039676327
20	0x3c5201bb	0.012817795
21	0x3d000a1f	0.031259652
22	0x3ca3d691	0.019999774
23	0xbb2e352e	-0.002658199
24	0x3cae423d	0.02127182
25	0x3bcc8926	0.0062419353
26	0xbbf791a1	-0.007555202
27	0x3c2d40aa	0.010574499
28	0xbb0724a1	-0.0020621198
29	0x3c1ab8d7	0.009443483
30	0x3be10354	0.006866852
31	0xbc8a7761	-0.016902627
32	0xba670455	-0.0008812596
33	0xbbb79527	-0.005602497
34	0xbc6321c8	-0.013863035
35	0xbc2b7f74	-0.010467399
36	0x3c429a67	0.011877633
37	0x3ca22100	0.019791126
38	0x3d48ba8e	0.049006037
39	0x3d121743	0.035666715
40	0x3cf7409d	0.030182177
41	0x3c699039	0.014255577
42	0x3c02fed0	0.007995322
43	0xbbf93cce	-0.0076061254
44	0x3b84594a	0.0040389644
45	0x3c064e8a	0.008197436
46	0x3ab85023	0.0014061969
47	0x3b9b43a5	0.0047382885
48	0x3c4e4dc8	0.012591787
49	0xbbd47596	-0.006483744
50	0x3bad2ae8	0.005284656
51	0xbbe107ac	-0.0068673696
52	0x3c5da6c9	0.013528534
53	0x3c3dcf2c	0.011585038
54	0x3bd2f15a	0.0064374628
55	0x3ba267e2	0.0049562315
56	0x3ba5110e	0.0050374335
57	0x3cf82969	0.030293183
58	0xbc708dda	-0.014682258
59	0xbc255079	-0.010089987
60	0x3bd28c80	0.0064254403
61	0x3cac317e	0.021019693
62	0x3c91365a	0.017726112
63	0x3c26dcae	0.01018445
64	0xbc53b569	-0.0129216695
65	0x3cf5cc52	0.030004654
66	0x3bd6d322	0.0065559307
67	0x3ccc8708	0.024966732
68	0x3d29f0bd	0.04148935
69	0xbbd8b3b6	-0.00661322
70	0xbcc7c367	-0.024385167
71	0x3b801828	0.0039091296
72	0xbcd8af60	-0.026450813
73	0x3d0cc97f	0.03437185
74	0x3cee22cf	0.029069332
75	0x3c4357ea	0.011922816
76	0x3cb75404	0.022378929
77	0x3d021d80	0.031766415
78	0xbaf55a0c	-0.0018718853
79	0xbb96e011	-0.0046043475
80	0x3c2266b7	0.009912184
81	0xbbd0a6e6	-0.006367552
82	0xbc838d40	-0.016058564
83	0xbc3769b0	-0.011194631
84	0xbc4f28aa	-0.012643972
85	0xbc515fd0	-0.012779191
86	0x3b839327	0.0040153447
87	0x3b650567	0.0034945847
88	0x3bb1d347	0.0054267976
89	0x3c278f03	0.010226968
90	0xbd1e4f6e	-0.03864997
91	0xbbf135db	-0.0073611564
92	0xbbcb6afc	-0.006207822
93	0xbd0a95c1	-0.033834223
94	0x3bd5f370	0.006529264
95	0xbc0e4669	-0.008683779
96	0xbad6ef88	-0.001639829
97	0xbc024ac4	-0.007952396
98	0xbc748aea	-0.014925698
99	0x3ce6c41e	0.028169688
100	0xbb387908	-0.0028148312
101	0x3b5f272f	0.0034050455
102	0x3c09de99	0.008414888
103	0x3bf9fd7e	0.0076290956
104	0x3ad7c261	0.0016461128
105	0xba54ac32	-0.00081128173
106	0xbb669397	-0.0035183185
107	0x3adcf872	0.001685871
108	0x3ccc8c4c	0.024969243
109	0x3bdd92ed	0.0067618997
110	0xbb49ab02	-0.0030772095
111	0x3ccc36ee	0.024928536
112	0x3c47dbea	0.012198428
113	0xbc95e23d	-0.018296355
114	0xbc2dc2ef	-0.010605558
115	0x3d0329e8	0.032022387
116	0xbb73e471	-0.003721502
117	0x3cffe3e4	0.031236596
118	0x3cdd433b	0.027009597
119	0x3b844136	0.004036094
120	0x3b60096b	0.00341853
121	0x3d274845	0.040840406
122	0x3b256835	0.0025239114
123	0x3d10acf8	0.035321206
124	0x3c3bd9f2	0.011465536
125	0x3b051bc9	0.002031075
126	0xbc96fbb7	-0.018430574
127	0x3c32b762	0.01090798
128	0x3bceb6cd	0.0063084126
129	0xbba21661	-0.0049465154
130	0xbd308d37	-0.043103423
131	0xbb35c65b	-0.0027736637
132	0x3cd9e011	0.026596101
133	0x3d0a2f1b	0.03373633
134	0x3b63faf6	0.0034787036
135	0x3bf14f19	0.0073641655
136	0x3b127ab9	0.002235098
137	0x3c40f561	0.011777253
138	0xbcebbaad	-0.028775537
139	0x39a13a9b	0.00030751977
140	0x3c00dee1	0.0078656385
141	0x3c0e5dec	0.008689385
142	0x3cd8baee	0.026456323
143	0xbc4f8774	-0.012666572
144	0x399afffc	0.00029563892
145	0xbc38fc36	-0.0112906005
146	0xb99cd6f5	-0.00029914794
147	0xbd16971b	-0.0367652
148	0x3d1ceeee	0.0383138
149	0x3dc5275c	0.09626648
150	0xbda49376	-0.080359384
151	0xba153422	-0.00056916673
152	0xbcdb703f	-0.026786922
153	0xbce6f1e2	-0.02819151
154	0xbd1b5973	-0.037927102
155	0xbcf44bf8	-0.029821381
156	0xbcba4ab7	-0.022740705
157	0x3c1d3654	0.009595472
158	0xbb88b928	-0.004172463
159	0x3ca62826	0.020282816
160	0xbc0483ae	-0.0080880355
161	0x3ccfeaf8	0.025380597
162	0x3bd80b29	0.0065931273
163	0x3cb33461	0.021875562
164	0xbcfd2bb3	-0.030904626
165	0x3c1050ab	0.008808295
166	0x3cd925cd	0.026507283
167	0xbc839d96	-0.016066354
168	0x3d1926be	0.037390463
169	0xbcddd43d	-0.027078742
170	0x3c453ea4	0.0120388605
171	0xbc085132	-0.00832014
172	0xbc83bd00	-0.016081333
173	0xbc0cb2d8	-0.008587562
174	0xbbf5ec8c	-0.007505005
175	0xbacef5ad	-0.001578977
176	0xbbd3e083	-0.006465973
177	0xbb6f94a9	-0.0036557114
178	0x3b511053	0.00319006
179	0x3979f1a3	0.00023836507
180	0x3d482acb	0.048868936
181	0x3d62f252	0.055406876
182	0x3d1d7329	0.038439903
183	0x3c1b26c6	0.0094696935
184	0x3d043bd6	0.032283626
185	0x3ce4401f	0.027862607
186	0xbd261463	-0.040546786
187	0xbc9c061b	-0.01904588
188	0x3c84cbdc	0.016210489
189	0x3d324216	0.043520056
190	0x3c35c3cf	0.011094048
191	0x3bbb1339	0.0057090786
192	0x3c7cbd0d	0.015425933
193	0x3d599cb5	0.053127963
194	0x3c807222	0.015679423
195	0xbd65382e	-0.05596178
196	0xbd649cef	-0.055813726
197	0xbcf679d5	-0.03008739
198	0x3cd64150	0.02615419
199	0xbc0870ab	-0.008327643
200	0xbc6d7cee	-0.014495118
201	0x3c61edfa	0.013789648
202	0x3c9903a0	0.018678486
203	0x3c9a08f3	0.018803095
204	0x3cda31f9	0.026635157
205	0xbc6e0210	-0.014526859
206	0xbba8a6de	-0.0051468452
207	0x3b826446	0.0039792387
208	0xbc80a287	-0.0157025
209	0xbc8d19c5	-0.017224202
210	0xbcba2945	-0.022724757
211	0xbc065f18	-0.008201383
212	0x3bfa4233	0.007637286
213	0x3d009ede	0.031401508
214	0x3c9ad573	0.018900609
215	0xbcc3a649	-0.023883002
216	0xbc3124e2	-0.010812016
217	0x3c975d9f	0.01847726
218	0xbc30d751	-0.010793523
219	0x3b6288f0	0.0034566484
220	0x3d5a7305	0.053332347
221	0xbc65bbbc	-0.01402181
222	0x3b70d5e7	0.003674859
223	0x3d6b9751	0.057517353
224	0xbd8d4856	-0.068985626
225	0x3d37f886	0.044914745
226	0xbd04fa5f	-0.032465335
227	0xbc8b7528	-0.017023638
228	0x3ac21da3	0.0014809858
229	0x3c97ac3b	0.018514743
230	0x3d034571	0.032048646
231	0xbc0d7e01	-0.008635999
232	0xbca85b5f	-0.020551382
233	0xbceeaa62	-0.02913398
234	0xbbdabeb3	-0.006675565
235	0xbb710a20	-0.0036779717
236	0xbcbe2c8c	-0.023214601
237	0xbca98b71	-0.020696374
238	0xbc0b9ee3	-0.008521768
239	0xbd04a9d2	-0.032388516
240	0xbc50fa36	-0.012754967
241	0x3ca4d417	0.020120664
242	0x3cd9b05e	0.026573356
243	0x3d14d22b	0.036333244
244	0x3d30fc4d	0.043209363
245	0xbaca9555	-0.0015455881
246	0x3c3f1306	0.01166225
247	0x3d11cc0a	0.035594977
248	0xbc9062ab	-0.017625174
249	0x3cdf0ac1	0.027226808
250	0xbb30e23c	-0.0026990315
251	0xbbcd0602	-0.0062568197
252	0x3c8f4bb7	0.017492158
253	0xbc5c9e1b	-0.01346543
254	0x3ce39692	0.027781758
255	0x3c83ef00	0.016105175

calibrate.convs.3.bias f4 [16]
0	0xbd005d53	-0.031339
1	0x3c6b3309	0.014355429
2	0x3d7f5945	0.062340993
3	0xbcbbb8f7	-0.022915347
4	0xbd128b0f	-0.035777148
5	0x3cb5e060	0.022201717
6	0xbd0774fb	-0.033070546
7	0x3dd0dc7d	0.10198305
8	0x3c94ec05	0.01817895
9	0xbd1bfbf9	-0.038082097
10	0x3cd0a22c	0.025467955
11	0x3d14b7d3	0.03630812
12	0xbd74f40a	-0.059803046
13	0x3c00f7a5	0.007871543
14	0x3d24bf3d	0.04022144
15	0x3dcfd699	0.10148353

calibrate.convs.4.weight f4 [16]
0	0x3f5f0848	0.8712201
1	0x3f4881c1	0.7832299
2	0x3f508feb	0.814696
3	0x3f410ec8	0.7541318
4	0x3f3b985c	0.73279357
5	0x3f462dc5	0.7741359
6	0x3f3c8644	0.73642373
7	0x3f66b0b7	0.90113395
8	0x3f216e25	0.6305869
9	0x3f3a5c7e	0.7279738
10	0x3f292400	0.66070557
11	0x3f5d77ad	0.86510736
12	0x3f34f6e8	0.7068925
13	0x3f305c14	0.688905
14	0x3f3f589f	0.747446
15	0x3f76ddf9	0.96432453

calibrate.convs.4.bias f4 [16]
0	0xbbb9a399	-0.0056652543
1	0x3ccd067e	0.02502751
2	0x3d1121d1	0.03543264
3	0xbc78e6d1	-0.01519175
4	0x3b29985f	0.0025878174
5	0x3cc76416	0.024339717
6	0x3cb72ab9	0.022359239
7	0x3d6c29fb	0.057657223
8	0x3d05e41b	0.03268824
9	0x3d36671d	0.04453193
10	0x3d655617	0.055990305
11	0x3d88dffa	0.06683345
12	0x3c815fd7	0.01579277
13	0x3c9f8ade	0.019475397
14	0x3d6f139a	0.058368303
15	0x3d9cb2ab	0.07651266

calibrate.convs.4.running_mean f4 [16]
0	0x3e94fbb4	0.29098284
1	0xbbd4c8aa	-0.0064936476
2	0xbe8826ba	-0.26592046
3	0xbee7c51f	-0.4526758
4	0xbd1949f2	-0.037424035
5	0x3deb59ae	0.114917144
6	0xbe0a779c	-0.1352219
7	0xbeb58c9d	-0.35458842
8	0xbdd38a21	-0.103290804
9	0xbee46fc1	-0.4461651
10	0xbe265c35	-0.16246112
11	0xbeeed638	-0.4664781
12	0xbe5b38de	-0.21408412
13	0xbea1a524	-0.31571305
14	0xbeccdcc1	-0.40012172
15	0xbedfbbb4	-0.43697894

calibrate.convs.4.running_var f4 [16]
0	0x3ea19208	0.31556726
1	0x3eb4e7ad	0.35333005
2	0x3e24362c	0.1603629
3	0x3ebc81b7	0.36817715
4	0x3e8af6ae	0.27141327
5	0x3e9aa4ea	0.30203944
6	0x3dd8ce72	0.10586251
7	0x3e33caa7	0.17557774
8	0x3e408f77	0.18804727
9	0x3eb9c4e0	0.36283016
10	0x3e22263e	0.158349
11	0x3e6295f7	0.2212752
12	0x3e978614	0.2959448
13	0x3e81057f	0.25199506
14	0x3eaa1b99	0.3322418
15	0x3e863d41	0.26218608

calibrate.blocks.0.0.weight f4 [16, 16, 3, 3]
0	0x3c22239a	0.009896183
1	0xbb17b4b9	-0.002314849
2	0xbc499c6d	-0.012305361
3	0xbca8727e	-0.020562407
4	0xbd3839a6	-0.044976853
5	0x3d405357	0.04695448
6	0x3d7765bf	0.060399767
7	0xbce1c84a	-0.027561326
8	0xbd36ae01	-0.044599537
9	0x3bb0a66f	0.005390934
10	0x3c64d18f	0.013965978
11	0xbd8d8177	-0.06909459
12	0x3d67cc33	0.056591224
13	0xbd126fe4	-0.03575124
14	0xbdbfbdcb	-0.09362372
15	0x3d060178	0.032716244
16	0x3d0bedbc	0.034162268
17	0x3c8d46dd	0.017245704
18	0x3cff8a8f	0.031194
19	0x3cafce9b	0.021460822
20	0x3c7c316b	0.015392642
21	0x3c2df39b	0.010617162
22	0xbd0f687b	-0.03501175
23	0x3c9e902e	0.01935586
24	0x3aefee2c	0.0018305234
25	0x3cc98acd	0.024602318
26	0xbb46b157	-0.0030318105
27	0x3b1e48eb	0.002415235
28	0x3ce0f74f	0.027461676
29	0x3a1e78bd	0.0006045213
30	0x3b61363f	0.0034364609
31	0xbb807e6f	-0.003921322
32	0xbd835de4	-0.064143926
33	0x3d092d1b	0.03349028
34	0xbdbd4c73	-0.09243097
35	0xbd6f9ded	-0.05850022
36	0xbc875878	-0.016521677
37	0x3c296889	0.0103398645
38	0xbc8c5fb2	-0.017135475
39	0x3c975004	0.018470772
40	0x3c3f45e4	0.011674378
41	0x3cf9fa62	0.0305149
42	0xbcb25b8f	-0.021772174
43	0xbc6b576c	-0.014364105
44	0xbd9537e6	-0.072860524
45	0xbbb970d1	-0.0056592007
46	0xbbc48ede	-0.0059984764
47	0x3c527ff1	0.012847886
48	0xbc2230ad	-0.0098993005
49	0xbd76686f	-0.06015819
50	0xb9e1c600	-0.00043062866
51	0x3d19d935	0.03756066
52	0x3b0dd741	0.0021643194
53	0x3d3919cc	0.045190617
54	0x3ce71b2e	0.028211202
55	0xbb46d077	-0.0030336657
56	0x3cfb2d79	0.030661331
57	0xbc060ccb	-0.008181761
58	0x3e18ead3	0.14933328
59	0xbba8a2fb	-0.005146382
60	0x3c1c6baa	0.0095471535
61	0xbc9ee7b0	-0.019397587
62	0xbc54b382	-0.012982251
63	0x3c9d7241	0.01921952
64	0xbcc2f885	-0.023800144
65	0x3c23f1f9	0.010006421
66	0xbc88e5f5	-0.016711215
67	0xbdd6f465	-0.10495833
68	0xba01bec8	-0.0004949388
69	0xbac2cf9b	-0.0014862897
70	0xbcc58e71	-0.024115773
71	0x3b59aa42	0.0033213054
72	0xbd8beaf2	-0.06831922
73	0x3dbda126	0.09259252
74	0x3c0b1d8f	0.008490934
75	0xbdabf84b	-0.083969675
76	0xbd8cdfc0	-0.068786144
77	0xba00ed20	-0.0004918147
78	0xbc2fd92b	-0.010732929
79	0xbc9e7672	-0.019343589
80	0x3d6f62fc	0.05844401
81	0xbc48b156	-0.012249311
82	0xbd0da082	-0.0345769
83	0xbca4c3ea	-0.02011295
84	0x3c007edb	0.007842745
85	0x3b024936	0.0019880063
86	0x3d12add6	0.035810314
87	0x3d03bc23	0.032161843
88	0xbb4d9cc9	-0.0031373969
89	0xbc4fc22d	-0.012680572
90	0xbcc06d60	-0.023489654
91	0x3ccc29b2	0.024922226
92	0xbc456db8	-0.012050085
93	0x3c3c6e35	0.011500885
94	0x3d2f21a7	0.042756703
95	0xbaefc74d	-0.0018293649
96	0xbced31f8	-0.028954491
97	0xbd9b8c77	-0.07595151
98	0xbd8c7e10	-0.06859982
99	0x3c9c90f5	0.01911209
100	0xbd26782d	-0.040641952
101	0x3cf8ce45	0.030371794
102	0xb8ace1f9	-8.24369e-05
103	0x3ba81270	0.005129151
104	0x3d2a5376	0.0415835
105	0x3c4cc2c7	0.01249761
106	0x3ae6e70f	0.0017616468
107	0x3d8a6604	0.06757739
108	0x3c76ed43	0.015071216
109	0x3a431e08	0.00074431347
110	0x3cc81583	0.02442432
111	0xbcfcb482	-0.030847792
112	0x3d0836c0	0.03325534
113	0xbc66cd18	-0.014086984
114	0x3c8a25ac	0.016863666
115	0x3d3fb5f1	0.046804372
116	0xbd24b683	-0.04021312
117	0x3af1a3e9	0.001843569
118	0xbaca0eb1	-0.0015415755
119	0x3c41acb5	0.011820962
120	0x3bdf7b09	0.006820087
121	0x3a643716	0.0008705718
122	0x3ab2b9ac	0.0013635657
123	0x3b94498f	0.0045253704
124	0x3b66bfe9	0.0035209602
125	0x3c0aa801	0.008462907
126	0x3d65bc50	0.056087792
127	0x3d458e98	0.04823169
128	0xbd23da09	-0.040002856
129	0xbd3674c5	-0.044544954
130	0x3cdc0027	0.026855541
131	0x3bbcb505	0.005758884
132	0xbcc3caf8	-0.023900494
133	0xbd653c7f	-0.055965897
134	0xbcb86331	-0.022508236
135	0x3b0a819b	0.002113438
136	0xbc54c417	-0.012986205
137	0x3bd8f687	0.006621185
138	0xbb4f1b0f	-0.0031601822
139	0xbdae9c93	-0.08525958
140	0x3ca5ed0e	0.020254638
141	0x3ad5bfd7	0.0016307783
142	0xbcb56c44	-0.022146352
143	0x3c3ebda1	0.011641891
144	0x3cb3a063	0.021927064
145	0xbcd99bc5	-0.026563535
146	0xbcfad12c	-0.030617319
147	0x3cad5203	0.02115727
148	0xbc3578ae	-0.011076136
149	0x3b020a55	0.0019842584
150	0xbb839a0a	-0.0040161656
151	0x3cc468c9	0.023975747
152	0xbd0e9b41	-0.03481603
153	0xbba8257f	-0.005131423
154	0xbc527aa7	-0.012846625
155	0x3c988109	0.018616216
156	0xbab220cf	-0.00135901
157	0x3d7c0891	0.061531607
158	0x3cb64d67	0.022253705
159	0xbcc8dd31	-0.024519535
160	0x3a46f816	0.0007590068
161	0xbc272d5d	-0.010203687
162	0x3cf90c8e	0.030401494
163	0x3a072a30	0.0005156128
164	0x3bf1ac73	0.007375294
165	0x3e00f8b9	0.1259488
166	0x3d3c52b0	0.045977294
167	0x3bb7f77a	0.0056142183
168	0x3b60f3d9	0.0034325032
169	0x3bc20907	0.0059214863
170	0xbcf3ff55	-0.029784838
171	0xbce1b2d4	-0.027551092
172	0x3bb699c6	0.0055725304
173	0x3bd1083b	0.006379155
174	0xbd007145	-0.031358022
175	0xbc1cf5ea	-0.009580115
176	0xbc3e055e	-0.011597959
177	0x3b591cf3	0.0033128827
178	0x3cf9d3ab	0.030496439
179	0x3c82551e	0.015909728
180	0xbc882c34	-0.01662264
181	0x3b8a2931	0.004216336
182	0x3d0560eb	0.03256313
183	0xbb8fa071	-0.00438314
184	0x3c43043c	0.011902865
185	0x3d304dc9	0.04304293
186	0xbb26cb14	-0.0025450634
187	0xbc78e99e	-0.015192417
188	0xbc48bb30	-0.01225166
189	0x3bd64580	0.0065390468
190	0xbbbdd92f	-0.0057937126
191	0x3b939ecd	0.0045050145
192	0x3bf3c981	0.0074397926
193	0xbd0dd731	-0.03462905
194	0x3ccb1049	0.024788039
195	0x3b585d6e	0.0033014673
196	0x3e0ac3f8	0.13551319
197	0xbc8ffed0	-0.017577559
198	0x3c5a8cb4	0.01333921
199	0xbc2d9403	-0.010594371
200	0xbbaf9697	-0.005358528
201	0xbbbf3ee4	-0.0058363546
202	0x3cf9531b	0.030435136
203	0xbbd1e079	-0.006404933
204	0x3d08dcda	0.033413745
205	0xbc210879	-0.00982868
206	0xbcc91e9a	-0.024550725
207	0x3d23bc2a	0.03997437
208	0x3b4d96e0	0.0031370446
209	0xbcc5836f	-0.024110524
210	0x3cbc1dec	0.022963487
211	0xbce6dd45	-0.028181681
212	0xbc1b125f	-0.009464829
213	0x3ddf8f47	0.10916
214	0xbadf07a6	-0.0017015829
215	0xbd1581d3	-0.036500763
216	0x3c0d163d	0.008611259
217	0xbcd82eaf	-0.026389448
218	0xbb88efaa	-0.004178961
219	0xbc527ef0	-0.012847647
220	0x3c8dbbb9	0.017301427
221	0x3c9189f0	0.017765969
222	0xbbc0c820	-0.0058832318
223	0x3b85df7d	0.00408548
224	0xb88af3fd	-6.625799e-05
225	0x3b474f90	0.0030412413
226	0xbc98c14a	-0.018646855
227	0xbd5b75cc	-0.053579137
228	0x3cc3dc56	0.023908775
229	0x3b5f695c	0.0034089899
230	0xbc223514	-0.00990035
231	0xbd0ec31d	-0.034854043
232	0xbc0ce526	-0.008599555
233	0xbc2eaa6e	-0.010660751
234	0x3c1e30c3	0.00965518
235	0x3c426455	0.011864741
236	0xbcc1e1f3	-0.023667311
237	0x3caad05d	0.020851308
238	0x3d98d2ea	0.07462104
239	0xbd1028c0	-0.035195112
240	0x3cbbf50d	0.022943998
241	0x3c22beeb	0.009933214
242	0xbbf0fdab	-0.0073544583
243	0xbc69a062	-0.01425943
244	0x3ccaf720	0.024776042
245	0xbc8743d0	-0.016511828
246	0xbb55758f	-0.003257129
247	0xbd2898e6	-0.04116144
248	0x3c2cdcb0	0.010550663
249	0xbb7e2715	-0.003878062
250	0x3d15fed2	0.03661997
251	0x3a662ae9	0.0008780198
252	0xbd3d4245	-0.046205778
253	0x3c986744	0.018603928
254	0x3b056730	0.0020355694
255	0x3c386835	0.011255314

calibrate.blocks.0.0.bias f4 [16]
0	0xbd4de1ff	-0.050264355
1	0xbbf6145f	-0.0075097526
2	0xbd814b94	-0.063132435
3	0x3babca10	0.0052425936
4	0xbcc1e560	-0.023668945
5	0xbd9904d1	-0.07471622
6	0xbc80f287	-0.015740646
7	0xbc618bda	-0.013766253
8	0x3cd6f95d	0.026241953
9	0xbcad3acd	-0.021146202
10	0x3bbb94ae	0.005724511
11	0xbd35ab12	-0.0443526
12	0x3c9b1874	0.018932559
13	0x3cabcd38	0.02097188
14	0xbb9f8191	-0.0048677404
15	0xbdbf4028	-0.09338409

calibrate.blocks.0.1.weight f4 [16]
0	0x3f578b3e	0.8419684
1	0x3f3cc9f1	0.7374564
2	0x3f159e98	0.5844512
3	0x3f00c166	0.502951
4	0x3f185546	0.59505117
5	0x3f60efc4	0.87865853
6	0x3f2931e9	0.6609178
7	0x3f1ad873	0.60486525
8	0x3f1531ac	0.5827892
9	0x3f21320a	0.6296698
10	0x3f06f28c	0.5271385
11	0x3f53bcd6	0.82710016
12	0x3f154b9c	0.58318496
13	0x3f2d3d8c	0.6767204
14	0x3f16012b	0.5859553
15	0x3f34985d	0.7054499

calibrate.blocks.0.1.bias f4 [16]
0	0x3cd801cb	0.026368042
1	0x3d0e11c0	0.034684896
2	0x3cfd9645	0.030955443
3	0x3ca7fe63	0.020507043
4	0x3ce19046	0.027534615
5	0xbb99c68a	-0.004692857
6	0x3c1cb333	0.009564209
7	0x3b8243a3	0.003975348
8	0x3cb935d5	0.022608677
9	0xbba73f5d	-0.005103989
10	0x3ceb3cc2	0.028715495
11	0xbb395640	-0.0028280169
12	0x3cb1907c	0.02167534
13	0x3bf32744	0.0074204523
14	0x3cb134c0	0.021631598
15	0x3bc6ee48	0.006070886

calibrate.blocks.0.1.running_mean f4 [16]
0	0xbe64d380	-0.22346306
1	0x3f1d0dc5	0.61349136
2	0x3f1b6022	0.6069356
3	0x3e4a2c0d	0.19743367
4	0xbe836fde	-0.25671285
5	0x3f0bd873	0.5462715
6	0x3e0f1da5	0.13976152
7	0x3e9a9649	0.30192783
8	0x3f0c8224	0.5488608
9	0x3f2949ec	0.6612842
10	0xbddd9756	-0.10819881
11	0x3f29a816	0.66272104
12	0x3ef3c6fa	0.47612745
13	0xbf27de27	-0.6557335
14	0xbe07bb17	-0.13254963
15	0x3f329ed7	0.6977362

calibrate.blocks.0.1.running_var f4 [16]
0	0x3e01937a	0.12653914
1	0x3e9212c2	0.28529936
2	0x3e5b910f	0.21442054
3	0x3e790c8c	0.24321193
4	0x3e72eb36	0.23722538
5	0x3e833ace	0.25630802
6	0x3e17a928	0.14810622
7	0x3e2bb780	0.16769218
8	0x3ec20232	0.378923
9	0x3f29e149	0.6635938
10	0x3eb1464a	0.3462394
11	0x3e3eacbc	0.1862058
12	0x3e912689	0.28349712
13	0x3f14e947	0.5816845
14	0x3efde11e	0.49585813
15	0x3e3c1ef5	0.18371184
